data/models/trane_model_epoch_100.pth (torch, 423135 bytes, 2 tensors)

entity_embeddings.weight f4 [820, 128]
0	0xbde9264a	-0.11384256
1	0xbd7e3f16	-0.062071882
2	0xbd2ad0bc	-0.04170297
3	0xbe0a5c5e	-0.13511798
4	0xbd8d6d87	-0.06905656
5	0x3e15afea	0.14617887
6	0xbd57b2f7	-0.05266091
7	0xbd8350d4	-0.06411901
8	0xbd2fac75	-0.042889077
9	0x3df37218	0.11886996
10	0xbd529bfd	-0.051418293
11	0xbdcda808	-0.10041815
12	0xbc9257e2	-0.017864171
13	0xbdc764df	-0.097360365
14	0x3db25a5e	0.087086424
15	0xbdd6c1cd	-0.10486183
16	0xbd80a2be	-0.062810406
17	0x3d9c19f6	0.07622139
18	0x3cd2a28b	0.025712272
19	0xbe155861	-0.14584495
20	0xbcc2845e	-0.023744758
21	0xbddb9b9e	-0.10723041
22	0x3d7c1f36	0.061553203
23	0x3d59d202	0.053178795
24	0x3d9697af	0.0735315
25	0xbd567d3b	-0.052365523
26	0xbdd4a450	-0.103829026
27	0x3d30f5b6	0.04320308
28	0xbd8b0a85	-0.06789116
29	0x3d225804	0.03963472
30	0xbd593aa9	-0.05303446
31	0xbe1b3bd4	-0.15159541
32	0x3d905702	0.070478454
33	0xbdb283ea	-0.08716567
34	0xbe23f507	-0.1601144
35	0xbcad6eaa	-0.021170933
36	0xbdfa9ebe	-0.12237309
37	0x3db52479	0.08844847
38	0xbdfdc041	-0.12390185
39	0xbdc648e7	-0.09681874
40	0xbe0361c1	-0.12830259
41	0x3dd9df99	0.10638351
42	0xbddbba40	-0.10728884
43	0x3dc17c5f	0.0944755
44	0x3d8c37b7	0.06846564
45	0x3d45b901	0.048272137
46	0x3d7f15a0	0.062276483
47	0x3d7fed39	0.062482093
48	0xbd6ed1a8	-0.058305413
49	0x3d465601	0.048421863
50	0xbe1dcbf9	-0.1540984
51	0xbd98eebf	-0.07467412
52	0x3daab29b	0.083348475
53	0x3d9d9cba	0.07695909
54	0xbdce49cb	-0.10072669
55	0x3cf8c8a1	0.030369105
56	0x3d541393	0.05177648
57	0xbd1fe26c	-0.039034292
58	0x3d77f7e9	0.06053916
59	0x3e2ae8a1	0.16690303
60	0x3d7101a4	0.058839455
61	0x3d5848ea	0.05280391
62	0x3d139dca	0.03603915
63	0xbce28cbc	-0.027654998
64	0xbd1d3579	-0.038381074
65	0x3da302bb	0.07959505
66	0x3d9e760b	0.07737359
67	0xbe1fb543	-0.1559649
68	0x3d36da48	0.044641763
69	0xbd8fc374	-0.070197016
70	0x3e2b84f1	0.16749932
71	0x3da41180	0.0801115
72	0x3e04309c	0.12909168
73	0xbd27d8c3	-0.040978204
74	0xbd611a70	-0.054956853
75	0x3e122b11	0.14274241
76	0xbd879b2c	-0.066213936
77	0xbd4bb770	-0.049735487
78	0x3d2402d8	0.040041775
79	0xbda716bb	-0.08158632
80	0xbde9b380	-0.1141119
81	0xbccee5f8	-0.025256142
82	0x3d720558	0.059087127
83	0x3d1c15d7	0.038106766
84	0x3da3f530	0.0800575
85	0xbe007f34	-0.12548524
86	0x3e26b44b	0.16279714
87	0xbe12bfae	-0.14330932
88	0xbde32f3a	-0.11092992
89	0x3e0be5af	0.13661836
90	0x3d8ef65b	0.06980582
91	0x3d5b3c56	0.053524338
92	0x3cafff78	0.021484122
93	0x3d67a4fe	0.056553833
94	0xbe128e83	-0.14312176
95	0xbdbd8874	-0.09254542
96	0x3d0fe51c	0.035130605
97	0xbdd5fd72	-0.104487315
98	0x3da13cff	0.07872962
99	0xbdac3cc1	-0.084100254
100	0x3d350639	0.044195388
101	0x3d05e85b	0.032692295
102	0x3d943223	0.07236125
103	0x3e1b3824	0.15158135
104	0xbd6fe414	-0.05856712
105	0xbd2a96c0	-0.041647673
106	0x3d96e1a9	0.0736726
107	0xbd8aa06d	-0.0676888
108	0x3d515061	0.051102046
109	0x3e37e19c	0.17957157
110	0x3d9beb3d	0.076132275
111	0x3da9982e	0.08280979
112	0xbdebce58	-0.11513966
113	0x3d71ef2d	0.059065986
114	0x3d869b81	0.06572629
115	0x3e163408	0.14668286
116	0xbd09bf00	-0.033629417
117	0xbd36b37b	-0.04460476
118	0x3d7ddc88	0.061977893
119	0xbd06b031	-0.032882873
120	0x3cbd0fad	0.023078764
121	0xbe0736fc	-0.13204569
122	0x3dcc6e5d	0.099819876
123	0xbda66d6a	-0.08126338
124	0x3d885890	0.06657517
125	0xbdb75fdc	-0.089538306
126	0xbd726b17	-0.05918416
127	0x3d27f2e8	0.041003138
128	0xbdf39399	-0.118933864
129	0xbd142a31	-0.03617305
130	0xbd0cec15	-0.034404833
131	0xbdec401c	-0.115356654
132	0xbd5dd3e4	-0.054157153
133	0x3e14ae8e	0.14519712
134	0xbd3624c9	-0.044468675
135	0xbd26f95a	-0.040765144
136	0xbcdb9d11	-0.026808294
137	0x3e0de7dc	0.13857979
138	0xbd6c271b	-0.05765448
139	0xbe11766b	-0.14205329
140	0xbc3e147a	-0.011601562
141	0xbdfb34ca	-0.12265928
142	0x3d9cc722	0.07655169
143	0xbdbb1dca	-0.09136541
144	0xbdb01469	-0.08597643
145	0x3d6a00a9	0.057129536
146	0x3cac1a1e	0.021008547
147	0xbe2efef8	-0.1708945
148	0xbc6ab970	-0.014326438
149	0xbdfb5ccd	-0.1227356
150	0x3d774d5e	0.060376517
151	0x3d9ed17b	0.07754799
152	0x3d53de3c	0.05172561
153	0xbd939125	-0.072054185
154	0xbdb655d5	-0.0890309
155	0x3cce5f37	0.025191886
156	0xbd80c98a	-0.062884405
157	0x3ce79f80	0.028274298
158	0xbd4be098	-0.049774736
159	0xbe1db447	-0.15400802
160	0x3d6dfec9	0.05810431
161	0xbda9ff1f	-0.083006136
162	0xbe286fef	-0.1644895
163	0xbd13a6da	-0.036047794
164	0xbe0f63e5	-0.1400295
165	0x3d496c2e	0.049175434
166	0xbe224caa	-0.15849558
167	0xbdc34532	-0.09534682
168	0xbdec411f	-0.11535858
169	0x3dad698b	0.08467396
170	0xbd757d00	-0.059933662
171	0x3dd91157	0.105990104
172	0x3ca060c7	0.019577397
173	0x3d44a17a	0.04800556
174	0x3dab08ca	0.08351286
175	0x3d7a39e5	0.06109037
176	0xbd0ef615	-0.03490265
177	0x3d6b40a2	0.057434686
178	0xbe14fa6c	-0.14548653
179	0xbdacb4eb	-0.08432945
180	0x3dc5aab1	0.096516974
181	0x3da7c295	0.081914105
182	0xbddbcfeb	-0.107330166
183	0x3cf5047d	0.029909367
184	0x3db3cae2	0.08778931
185	0xbd09efb9	-0.033675883
186	0x3d6abe2f	0.05731028
187	0x3e143f05	0.14477165
188	0x3da4f326	0.080541894
189	0x3d23169e	0.03981649
190	0x3cfedba1	0.031110587
191	0xbd14e9a9	-0.03635565
192	0xbce3bf8f	-0.027801303
193	0x3d62ddcb	0.0553873
194	0x3d9fd216	0.078037426
195	0xbe3755cb	-0.17903821
196	0x3cfef626	0.031123232
197	0xbd0ec7d0	-0.034858525
198	0x3e240808	0.16018689
199	0x3d823031	0.06356848
200	0x3e264880	0.16238594
201	0xbd2e2f44	-0.042525545
202	0xbd59d1f7	-0.053178754
203	0x3e2c5afa	0.1683158
204	0xbcaba799	-0.02095394
205	0xbd1e1a43	-0.038599264
206	0x3cbb9699	0.022898959
207	0xbe0dc37f	-0.13844107
208	0xbe095c87	-0.13414203
209	0xbce565dc	-0.028002672
210	0x3d285301	0.041094784
211	0x3cbf6817	0.023365064
212	0x3dc09e40	0.09405184
213	0xbda6980f	-0.081344716
214	0x3e1453b0	0.14485049
215	0xbe02f885	-0.12790115
216	0xbde52f39	-0.11190648
217	0x3e31752a	0.17329851
218	0x3d212ecb	0.039351266
219	0x3d1282dd	0.035769332
220	0x3cad1c1d	0.02113157
221	0x3cfbbb60	0.030728996
222	0xbe1ad7d9	-0.15121402
223	0xbd5fa17e	-0.05459737
224	0x3d0cb6fb	0.03435419
225	0xbe131973	-0.14365177
226	0x3d3bf209	0.04588512
227	0xbdab0088	-0.08349711
228	0x3d225fac	0.03964202
229	0x3d05ebd8	0.03269562
230	0x3da4daa8	0.08049518
231	0x3e27922f	0.16364358
232	0xbd684205	-0.056703586
233	0xbcec0f47	-0.028815879
234	0x3d75a0be	0.05996775
235	0xbd8ee872	-0.06977929
236	0x3d24714f	0.040147122
237	0x3e27c585	0.16383941
238	0x3da48fed	0.08035264
239	0x3db61226	0.0889018
240	0xbdfc724e	-0.123264894
241	0x3d763f50	0.060118973
242	0x3d869bab	0.0657266
243	0x3debb4c9	0.115090914
244	0xbd1560fb	-0.03646944
245	0xbcf5c943	-0.030003196
246	0x3d1c31f4	0.038133577
247	0xbca8620f	-0.02055457
248	0x3c122bee	0.0089216065
249	0xbe163d56	-0.14671835
250	0x3d907068	0.0705269
251	0xbd62e8c0	-0.05539775
252	0x3d876e56	0.06612842
253	0xbdc08f6c	-0.094023556
254	0xbd04c077	-0.03241011
255	0x3cfe893e	0.031071302

relation_embeddings.weight f4 [4, 128]
0	0x3d88b65b	0.066754065
1	0x3e205720	0.15658236
2	0x3e166170	0.14685607
3	0xbc81cfb4	-0.01584611
4	0x3e200ddb	0.15630285
5	0x3c5929ac	0.013254564
6	0x3e287881	0.16452219
7	0xbe0f5211	-0.1399615
8	0x3e0b6e1d	0.13616224
9	0xbe31ae25	-0.17351587
10	0x3e3a2b3b	0.18180554
11	0xbe331938	-0.17490089
12	0x3e40cbac	0.18827695
13	0x3d8a3868	0.0674904
14	0xbd8be84e	-0.06831418
15	0xbe0498ca	-0.1294891
16	0x3db83862	0.08995129
17	0x3e55c5cb	0.20876233
18	0x3d877435	0.066139616
19	0x3e1e07ca	0.15432659
20	0xbe470412	-0.19435146
21	0xbd9315dd	-0.071819045
22	0xbdb4a541	-0.08820582
23	0xbe1c6ac3	-0.15275101
24	0xbdee2c04	-0.11629489
25	0x3e345b9e	0.17613074
26	0x3e0f5505	0.13997276
27	0x3ca18f97	0.01972179
28	0x3e1fcfbb	0.15606587
29	0x3dc34bf0	0.09535968
30	0xbdfa779a	-0.122298434
31	0x3c9890b1	0.018623682
32	0xbe207158	-0.15668237
33	0x3d7d0a97	0.061777677
34	0xbac55c1e	-0.001505736
35	0x3ddce7f1	0.10786427
36	0x3e152f04	0.14568716
37	0x3e36fe97	0.17870556
38	0x3e22931c	0.1587643
39	0x3e1dec59	0.1542219
40	0x3e2a0c20	0.16606188
41	0xbe19dd6a	-0.15025869
42	0x3d4f86d5	0.050665695
43	0xbe4bf01f	-0.19915818
44	0x3d35557f	0.04427099
45	0xbd5d2304	-0.05398847
46	0xbe4088cc	-0.18802184
47	0xbe4d07d8	-0.20022523
48	0xbd4cbc75	-0.049984414
49	0xbe17fdb4	-0.14842874
50	0x3e0f65ff	0.14003752
51	0xbe268b99	-0.1626419
52	0x3e387bf8	0.1801604
53	0xbe16f3ef	-0.14741491
54	0xbd9fe8ca	-0.07808073
55	0x3dce5f8b	0.10076817
56	0x3e28e824	0.16494805
57	0x3e4255f4	0.18978101
58	0x3e394967	0.18094407
59	0xbd90680e	-0.07051097
60	0xbdf2a8af	-0.1184858
61	0xbd74b983	-0.05974723
62	0x3b5ef5ce	0.0034021023
63	0xbe07b31e	-0.13251922
64	0x3e1a851b	0.15089838
65	0x3c438b52	0.011935072
66	0xbcba3143	-0.022728568
67	0xbbb6a38a	-0.0055736946
68	0xbc8ef1e4	-0.017449327
69	0x3d8180b9	0.0632338
70	0x3dbe7345	0.0929933
71	0x3c496240	0.012291491
72	0xbe35aad9	-0.17740954
73	0x3d2c701d	0.042099107
74	0xbd8aee3f	-0.06783723
75	0xbd860f40	-0.065458775
76	0x3e1098c3	0.14120774
77	0x3df463f9	0.11933131
78	0x3ddd7748	0.10813767
79	0x3e49b5f8	0.19698322
80	0x3dd06c06	0.10176854
81	0x3e348015	0.17626984
82	0x3e58dcca	0.21177974
83	0xbe2d1695	-0.16903146
84	0x3e34fd96	0.1767486
85	0xbbb975d0	-0.0056597963
86	0xbe1230ff	-0.14276503
87	0x3e12eeed	0.14348955
88	0x3d9933da	0.07480593
89	0xbd1cef01	-0.03831387
90	0x3d1bdf96	0.038055025
91	0xbdc95ead	-0.09832511
92	0xbe33a86b	-0.17544715
93	0xbdc8d693	-0.09806552
94	0x3d9d658b	0.076853834
95	0xbc0676ff	-0.008207082
96	0xbe1835ff	-0.14864348
97	0x3df5978c	0.11991796
98	0x3dad610b	0.08465775
99	0x3d4a9656	0.049459778
100	0xbd736881	-0.059425835
101	0x3ddb73ca	0.107154444
102	0xbdfdf78c	-0.124007314
103	0xbe32097e	-0.17386433
104	0x3e2e53cd	0.17024155
105	0xbddcb69e	-0.10777019
106	0x3ddca1cb	0.10773047
107	0xbe308fa5	-0.17242296
108	0x3d4c60c6	0.049896978
109	0xbdadbe96	-0.08483617
110	0xbe36195a	-0.17783108
111	0x3dc0dadc	0.09416744
112	0xbda7cecf	-0.081937425
113	0xbe0d83c7	-0.138198
114	0x3e066dad	0.13127775
115	0x3e0d2e66	0.13787231
116	0x3e2f970e	0.17147467
117	0xbe4a77c9	-0.19772257
118	0xbd68e27c	-0.056856617
119	0x3dbe467e	0.09290789
120	0x3e234ae1	0.15946533
121	0x3e3302dd	0.17481561
122	0xbda13a59	-0.07872457
123	0xbd09323b	-0.03349517
124	0x3e138ad6	0.1440843
125	0x3e4348da	0.1907076
126	0xbe3f999c	-0.18710941
127	0xbe08fe92	-0.13378361
128	0x3d563fad	0.05230682
129	0x3de09cf2	0.10967435
130	0x3dc52e1c	0.09627935
131	0x3c12188e	0.008916987
132	0x3dfd215e	0.1235988
133	0xbbd6e5e6	-0.0065581677
134	0x3dea541c	0.11441824
135	0xbdb10c67	-0.08644944
136	0x3de1ff8d	0.110350706
137	0xbdf89505	-0.12137798
138	0x3dfb3dce	0.12267648
139	0xbe021e80	-0.12706947
140	0x3e0a51c8	0.1350776
141	0x3d395935	0.04525109
142	0xbd41b150	-0.04728824
143	0xbde40fd2	-0.1113583
144	0x3d9615e3	0.07328393
145	0x3e163c10	0.1467135
146	0x3d731166	0.059342764
147	0x3e03eaf2	0.12882593
148	0xbdff86be	-0.12476872
149	0xbc699cf4	-0.014258612
150	0xbd928c79	-0.07155699
151	0xbdd5c3da	-0.10437746
152	0xbd9d1d26	-0.07671575
153	0x3df6c065	0.12048415
154	0x3dc97a94	0.09837833
155	0x3c033ef7	0.008010617
156	0x3df8e52f	0.12153088
157	0x3d4b68e6	0.049660586
158	0xbd8dcaaa	-0.06923421
159	0x3c487476	0.012234798
160	0xbe038278	-0.12842739
161	0x3d636528	0.055516392
162	0x3c9ee26b	0.019395074
163	0x3d743585	0.059621353
164	0x3daef11e	0.08542083
165	0x3e00d46e	0.12581035
166	0x3df86930	0.12129438
167	0x3db3800f	0.087646596
168	0x3e070f28	0.13189375
169	0xbda65edb	-0.08123561
170	0x3cf42caf	0.029806463
171	0xbe073a91	-0.13205935
172	0x3d61521f	0.055009957
173	0xbce263c1	-0.027635457
174	0xbe0678a0	-0.13131952
175	0xbe0f2411	-0.13978602
176	0xbd3a284d	-0.04544859
177	0xbda60ccd	-0.0810791
178	0x3da721df	0.08160757
179	0xbdbc2c85	-0.09188179
180	0x3dcb7527	0.099344544
181	0xbdf32730	-0.11872709
182	0xbd73b1fd	-0.059495915
183	0x3d8b9a21	0.06816507
184	0x3ddf4736	0.10902254
185	0x3e0f4af6	0.13993439
186	0x3e09f907	0.13473903
187	0xbd3d3faa	-0.046203293
188	0xbda909c8	-0.08253819
189	0xbd436549	-0.047704015
190	0x3c0b3f74	0.008499015
191	0xbdd98915	-0.106218494
192	0x3df2fa4c	0.118641466
193	0x3c891f69	0.01673861
194	0xbce697e9	-0.028148608
195	0x3c8ac487	0.016939415
196	0xbc615834	-0.013753939
197	0x3d10aaeb	0.03531925
198	0x3d377bdf	0.044795867
199	0xbc05af97	-0.00815954
200	0xbe07f3f5	-0.13276656
201	0x3d19f179	0.037583802
202	0xbca3407e	-0.019928213
203	0xbd818af7	-0.063253336
204	0x3df63774	0.120222956
205	0x3de4add5	0.11165968
206	0x3d58a5cd	0.052892495
207	0x3e044e2d	0.12920447
208	0x3dace45c	0.084419936
209	0x3e07a224	0.13245445
210	0x3e0ba890	0.1363852
211	0xbdcd0051	-0.10009826
212	0x3e02da83	0.12778668
213	0x3c2e5cca	0.01064224
214	0xbda29b59	-0.079397865
215	0x3dafcc8d	0.08583937
216	0x3d3c1a1b	0.045923334
217	0xbcc912a1	-0.024545016
218	0x3d561968	0.052270323
219	0xbda99e53	-0.08282151
220	0xbdf691aa	-0.12039502
221	0xbd8ce96d	-0.0688046
222	0x3d79e6d6	0.061011158
223	0x3c5d5a00	0.013510227
224	0xbd9162a0	-0.07098889
225	0x3daf52ba	0.08560701
226	0x3d6c9663	0.057760607
227	0x3ce52f16	0.027976554
228	0xbd5924c1	-0.053013567
229	0x3d95930d	0.07303438
230	0xbdc3fac7	-0.09569316
231	0xbde19877	-0.110154085
232	0x3dda6d13	0.106653355
233	0xbdb42a69	-0.087971516
234	0x3da833e5	0.08213023
235	0xbdeb462b	-0.11487993
236	0x3cee0c40	0.029058576
237	0xbd593c0d	-0.053035785
238	0xbdf3ca79	-0.11903853
239	0x3d84e037	0.06488078
240	0xbd6e6e77	-0.058210816
241	0xbdd92875	-0.1060342
242	0x3daaa50c	0.083322614
243	0x3d5fb56c	0.054616377
244	0x3de98832	0.1140293
245	0xbe1312ab	-0.1436259
246	0xbd3f0748	-0.046637803
247	0x3d7dbffd	0.061950672
248	0x3de7a562	0.11310841
249	0x3e0b4d1a	0.1360363
250	0xbcfd351e	-0.030909117
251	0xbcca9870	-0.024730891
252	0x3ddc03dd	0.10742924
253	0x3e0c30a9	0.13690437
254	0xbe0e0e5b	-0.13872664
255	0xbd8d8e57	-0.06911915
