data/models/trane_model_epoch_70.pth (torch, 423131 bytes, 2 tensors)

entity_embeddings.weight f4 [820, 128]
0	0x3e073fb3	0.13207893
1	0xbddb79c1	-0.10716582
2	0x3dc78251	0.09741653
3	0xbd4ae660	-0.04953611
4	0xbd9e8cc4	-0.07741693
5	0x3d2ef9a8	0.04271856
6	0xbda91863	-0.082566045
7	0xbd8c5fb1	-0.06854189
8	0x3dfa120e	0.12210475
9	0x3d70aa65	0.05875625
10	0xbc608582	-0.013703706
11	0xbdaa473b	-0.083143674
12	0x3d211f47	0.03933647
13	0x3dada826	0.084793374
14	0xbdb600b8	-0.08886856
15	0x3dc91baf	0.09819733
16	0x3d827d14	0.06371513
17	0xbcac4bfd	-0.021032328
18	0x3d92adfe	0.071620926
19	0xb9bcaac5	-0.00035985388
20	0x3dc8fee4	0.098142415
21	0xbdd15c3f	-0.10222673
22	0x3ddd657a	0.10810371
23	0x3dfaa034	0.122375876
24	0x3d8a821b	0.06763097
25	0x3df95cb3	0.12175884
26	0x3dbf1f86	0.093321845
27	0xbde19c57	-0.110161476
28	0x3dd1f179	0.102511354
29	0xbda79b1b	-0.08183881
30	0x3de4b3d7	0.11167114
31	0x3d912da6	0.07088785
32	0xbe13b476	-0.14424309
33	0xbd9180c3	-0.071046375
34	0x3df1e16d	0.11810575
35	0x3e128964	0.14310223
36	0xbd235bcc	-0.039882466
37	0xbd7a8681	-0.06116343
38	0xbd52c52e	-0.051457576
39	0xbd7fc855	-0.06244691
40	0x3dc634c2	0.096780315
41	0xbdd5f3b6	-0.10446875
42	0x3db9ed6e	0.09078489
43	0x3db8a0f5	0.09015075
44	0xbddceaa8	-0.10786945
45	0xbd8a24c9	-0.067452975
46	0x3de8af2a	0.11361535
47	0xbdad2e21	-0.08456064
48	0xbc1a4978	-0.00941693
49	0x3d9f5690	0.07780182
50	0x3d381b73	0.044948053
51	0x3d38da12	0.045129843
52	0x3ceb4a3a	0.028721917
53	0x3d058f88	0.032607585
54	0x3debb36a	0.1150883
55	0xbdce6808	-0.10078436
56	0xbd4d7183	-0.05015708
57	0x3db35ee4	0.08758333
58	0xbe00a4b8	-0.12562835
59	0x3dea22e9	0.1143244
60	0xbd9b9e0d	-0.07598505
61	0x3d424d8b	0.047437232
62	0xbdd07cf3	-0.10180082
63	0xbdc4e848	-0.09614617
64	0x3d8e22e0	0.06940246
65	0x3e06ede7	0.1317669
66	0x3d7f2276	0.062288724
67	0xbdb22974	-0.08699313
68	0xbd8f414d	-0.06994877
69	0xbd90d565	-0.07071952
70	0x3d80e8ac	0.06294379
71	0x3de3b43b	0.111183606
72	0x3af93634	0.0019013346
73	0xbdb84208	-0.089969695
74	0xbdb1131b	-0.08646222
75	0x3dda101f	0.10647606
76	0xbd952eb6	-0.072843
77	0x3de73e04	0.112911254
78	0xbd0eaa6d	-0.0348305
79	0xbdf06928	-0.11738807
80	0x3d27e8f6	0.040993653
81	0xbdcff1cd	-0.10153542
82	0xbd98906b	-0.074494205
83	0x3d8d493d	0.06898735
84	0xbdb39568	-0.08768731
85	0xbdd6baf2	-0.10484876
86	0xbd7987ff	-0.06092071
87	0x3bab791c	0.005232943
88	0x3e1f02a7	0.15528356
89	0x3dd318c5	0.10307459
90	0xbd3e4d9e	-0.04646074
91	0x3d71ea22	0.059061177
92	0xbd8fd9ec	-0.07023987
93	0x3b938f99	0.004503202
94	0xbda354be	-0.07975148
95	0x3c22659a	0.009911919
96	0x3da62fd4	0.08114591
97	0x3ddeb41d	0.10874198
98	0x3d92f35e	0.07175325
99	0xbd7d7bc9	-0.06188563
100	0xbd8e9f90	-0.06964028
101	0xbdef3f7b	-0.1168203
102	0xbd889552	-0.066691056
103	0x3e049988	0.12949193
104	0xbdfed38a	-0.124426916
105	0x3d34a1f9	0.04409978
106	0xbd6e6143	-0.058198225
107	0xbdb8e96f	-0.09028899
108	0xbdbb1d1c	-0.091364115
109	0xbdcd82f3	-0.10034742
110	0xbd99556a	-0.074869946
111	0xbd9e6d92	-0.07735743
112	0x3dc8f994	0.09813228
113	0x3d7a62ba	0.06112931
114	0x3d9f8f1b	0.07790967
115	0x3d68b067	0.056808855
116	0x3dd8e89d	0.105912425
117	0xbdb2f97f	-0.08738994
118	0x3e032b38	0.12809455
119	0x3e1e904c	0.15484732
120	0xbe0406e7	-0.12893258
121	0xbda350c9	-0.07974393
122	0x3dd29c3b	0.10283705
123	0xbdc18408	-0.09449011
124	0xbdce5325	-0.10074452
125	0xbde29979	-0.11064429
126	0x3dd21d3e	0.10259484
127	0xbdcae83d	-0.09907577
128	0x3e01bdfd	0.12670131
129	0xbd8eb204	-0.069675475
130	0x3d92baed	0.071645595
131	0xbcdbff2d	-0.026855076
132	0xbd9abc39	-0.07555432
133	0x3db23fc2	0.08703567
134	0xbddbf11e	-0.10739349
135	0xbd8d03e3	-0.06885507
136	0x3e0d1349	0.13776888
137	0x3da15046	0.07876639
138	0x3d39de25	0.04537787
139	0xbdc727c8	-0.097243845
140	0x3c8b354f	0.016993193
141	0x3d9beb0c	0.07613191
142	0xbde610c9	-0.1123367
143	0x3daf961e	0.085735545
144	0x3db0ade7	0.08626919
145	0xbd98c396	-0.0745918
146	0x3dbaf875	0.09129421
147	0xbd757624	-0.05992712
148	0x3e015989	0.12631811
149	0xbdc7d7be	-0.097579464
150	0x3e0044e9	0.12526287
151	0x3de61af9	0.112356134
152	0x3d7a1192	0.061051913
153	0x3dfabbef	0.12242877
154	0x3dca4aed	0.09877572
155	0xbdc7dd35	-0.09758989
156	0x3e0318c6	0.12802419
157	0xbd8a9951	-0.06767524
158	0x3dc4717e	0.095919594
159	0x3de9301f	0.113861315
160	0xbdd21ff7	-0.10260003
161	0xbdc7567b	-0.09733292
162	0x3dafbb57	0.08580654
163	0x3de78863	0.113053106
164	0xbd46505b	-0.048416477
165	0xbd28f18d	-0.041245986
166	0xbddda478	-0.108223855
167	0xbded6078	-0.115906656
168	0x3db5c425	0.08875302
169	0xbe06c939	-0.13162698
170	0x3deba097	0.115052395
171	0x3dbc45d6	0.09193008
172	0xbd993d21	-0.074823625
173	0xbdabe898	-0.08393973
174	0x3dd6de8c	0.10491666
175	0xbe059f80	-0.13049126
176	0xbd95585c	-0.07292244
177	0x3dbb7c1f	0.091545336
178	0x3da1c9dd	0.078998305
179	0x3d8fb1db	0.07016345
180	0x3da1af3e	0.07894753
181	0x3d16b8c5	0.036797304
182	0x3d86e11b	0.06585904
183	0xbd9b1669	-0.07572634
184	0xbd69c996	-0.057077013
185	0x3dc725a1	0.09723974
186	0xbe12acfc	-0.14323801
187	0x3dd804ba	0.105477765
188	0xbdb2efec	-0.08737168
189	0x3cc79a3c	0.024365537
190	0xbd98f383	-0.07468321
191	0xbdd22eb7	-0.102628164
192	0x3d78f04f	0.06077605
193	0x3da66f2c	0.08126673
194	0x3db579ae	0.08861099
195	0xbe01d4c3	-0.12678818
196	0xbda2b38a	-0.079444006
197	0xbd728d7d	-0.059216965
198	0x3d813596	0.06309049
199	0x3e055e86	0.13024339
200	0xbcb583a0	-0.02215749
201	0xbdce2ad8	-0.100667655
202	0xbd45f9dd	-0.04833399
203	0x3de63f7e	0.11242579
204	0xbd5f671b	-0.05454169
205	0x3da81c46	0.08208518
206	0xbd826322	-0.06366564
207	0xbd90f415	-0.07077805
208	0xbd2244c5	-0.039616365
209	0xbded2b9d	-0.11580584
210	0xbdbe6dc9	-0.092982836
211	0x3d8ec899	0.06971855
212	0xbda1feb2	-0.079099074
213	0xbe09b591	-0.13448168
214	0x3cf79ed8	0.03022711
215	0x3de43d87	0.11144548
216	0x3d8afd4e	0.06786595
217	0x3dc4876f	0.095961444
218	0xbd6ec028	-0.058288723
219	0x3d2e82c5	0.04260518
220	0xbda94e05	-0.08266834
221	0x3d10c42b	0.03534333
222	0xbd664264	-0.05621566
223	0x3d8e0e71	0.06936348
224	0x3d61cc27	0.055126335
225	0x3d46b2e3	0.048510443
226	0x3dc9f178	0.0986051
227	0xbdbb3868	-0.09141618
228	0xbd16826d	-0.036745477
229	0xbdd59f68	-0.10430795
230	0xbd8eca7c	-0.069722146
231	0x3dfdd5ca	0.12394293
232	0xbde94b57	-0.11391323
233	0x3d6c7adb	0.05773435
234	0xbd9904aa	-0.07471593
235	0xbe09a46d	-0.1344163
236	0xbd5479c8	-0.051873952
237	0xbdd98c78	-0.106224954
238	0xbdc2fd16	-0.095209286
239	0xbd9cd38c	-0.07657537
240	0x3de73169	0.11288721
241	0x3db81b95	0.08989636
242	0x3dc2f656	0.09519641
243	0x3d4ecd53	0.05048878
244	0x3d9d9801	0.07695008
245	0xbd147a23	-0.03624929
246	0x3dd10248	0.10205513
247	0x3dc89ff3	0.09796133
248	0xbde90aab	-0.11378988
249	0xbd8c72fe	-0.068578705
250	0x3d451691	0.048117224
251	0xbdeaa759	-0.114577
252	0xbd817827	-0.06321745
253	0xbdd9d232	-0.10635795
254	0x3da8ad26	0.082361504
255	0xbd54189a	-0.051781274

relation_embeddings.weight f4 [4, 128]
0	0x3d882c9b	0.06649133
1	0xbe350edb	-0.17681448
2	0x3e25821f	0.16162919
3	0xbe370457	-0.1787275
4	0xbe2e57f5	-0.1702574
5	0xbb89672e	-0.004193208
6	0x3de2afd6	0.11068694
7	0xbe34ec58	-0.17668283
8	0xbe2511aa	-0.1612002
9	0xbdcf3d11	-0.10119069
10	0xbe1642e4	-0.14673954
11	0x3e07e4a2	0.1327081
12	0xbe3a9e9b	-0.18224566
13	0x3ce20d46	0.02759422
14	0x3e3cd71c	0.18441433
15	0x3e005a27	0.1253439
16	0xbe18b911	-0.14914347
17	0xbd968a4b	-0.07350596
18	0xbdfec868	-0.12440568
19	0x3db12fd8	0.086517036
20	0xbe15f489	-0.14644064
21	0x3e2ed5b6	0.17073712
22	0x3dfcf630	0.12351644
23	0x3e18cd2e	0.1492202
24	0xbdc33f72	-0.095335856
25	0xbd1046b9	-0.035223696
26	0x3e0d1e8a	0.13781181
27	0xbe1e05d6	-0.15431914
28	0x3dd53ba6	0.10411768
29	0x3e3b15fe	0.18270108
30	0xbd832656	-0.064037964
31	0x3dfaa136	0.1223778
32	0xbe29b56a	-0.1657311
33	0xbe066078	-0.13122737
34	0xbdce155e	-0.10062669
35	0x3dc5bf9b	0.096556865
36	0x3df4bffe	0.11950682
37	0x3d44d54a	0.04805497
38	0x3e0d6fb7	0.13812147
39	0xbdfa35f8	-0.12217325
40	0xbe12ce60	-0.14336538
41	0xbe182cf4	-0.14860898
42	0xbe3b168f	-0.18270324
43	0xbdadcbda	-0.08486147
44	0xbe3236b2	-0.17403677
45	0x3e23dc0b	0.16001908
46	0x3e160b54	0.14652759
47	0x3e337f3d	0.17529006
48	0x3e0c40a8	0.1369654
49	0x3da26ae7	0.07930546
50	0xbd044b7b	-0.032298546
51	0xbd0e7d9e	-0.034787767
52	0xbe2c9d19	-0.16856803
53	0x3da8d9f2	0.08244695
54	0x3e22ac31	0.15885998
55	0xbe0b8ee4	-0.13628727
56	0xbe2b7c63	-0.16746669
57	0x3e17fb95	0.14842065
58	0xbdc2b900	-0.09507942
59	0x3e04428a	0.12916008
60	0x3e245384	0.16047484
61	0x3e2d499b	0.1692261
62	0x3df632c8	0.120214045
63	0xbe091d42	-0.13390067
64	0x3d6b40e3	0.057434928
65	0x3e1d4dcd	0.1536171
66	0xbe281179	-0.16412915
67	0x3d862fe4	0.06552103
68	0x3df17051	0.11789001
69	0x3e1015c0	0.14070797
70	0x3d24c9f0	0.040231645
71	0xbdfe2e54	-0.1241118
72	0xbe2a515c	-0.16632599
73	0x3e1bfc27	0.15232907
74	0xbe193287	-0.14960681
75	0xbe39ce85	-0.18145187
76	0xbe3b0bac	-0.18266171
77	0xbe225e00	-0.1585617
78	0x3e2774d7	0.16353165
79	0x3e192a71	0.14957596
80	0x3e00deb8	0.1258496
81	0x3e128953	0.14310198
82	0x3e3d0ec3	0.18462662
83	0xbe008402	-0.12550357
84	0x3e1c1102	0.15240863
85	0x3df937e4	0.121688634
86	0x3dc3444e	0.095345125
87	0x3d15a8df	0.036538
88	0x3e05b881	0.13058664
89	0x3e19212e	0.14954063
90	0x3dde6c30	0.10860479
91	0xbe261a88	-0.16221058
92	0xbe0dabbd	-0.13835044
93	0x3e1990da	0.14996663
94	0x3e2b26c8	0.16714013
95	0xbe3ee53f	-0.18642138
96	0xbe3b2308	-0.18275082
97	0x3e28a468	0.16468966
98	0x3df74564	0.12073782
99	0x3e36ca2e	0.17850563
100	0xbe34ae5c	-0.17644638
101	0xbdcd7f0d	-0.10033999
102	0x3e0564d7	0.13026749
103	0xbd353f82	-0.04425002
104	0xbe06eae0	-0.13175535
105	0xbe18d7d0	-0.14926076
106	0x3cc0a127	0.023514343
107	0x3e29735b	0.16547911
108	0xbe239a1d	-0.15976758
109	0x3e1efae2	0.15525392
110	0xbe3aa576	-0.18227181
111	0xbdfb74c9	-0.122781344
112	0xbe35f21a	-0.17768136
113	0xbe19a7e6	-0.15005454
114	0xbe2e70ed	-0.17035265
115	0xbdff4aed	-0.12465463
116	0x3e0d5842	0.13803199
117	0xbe19a3a5	-0.15003832
118	0xbdb16468	-0.08661729
119	0xbb67bfd4	-0.0035362141
120	0xbe10d3da	-0.14143315
121	0xbd92e64d	-0.07172833
122	0x3e1d18fd	0.15341564
123	0x3da8f08e	0.08249007
124	0x3e0df393	0.13862447
125	0xbdb8d129	-0.09024269
126	0x3c8fc0ca	0.017547984
127	0x3d682994	0.056680277
128	0xbe0235d3	-0.12715845
129	0xbe3cd736	-0.18441471
130	0x3e37eccb	0.17961423
131	0xbd7ca14c	-0.061677262
132	0xbe45124e	-0.19245264
133	0x3e1a7429	0.15083374
134	0xbdd83bbf	-0.10558271
135	0xbe47f2d2	-0.19526222
136	0xbe2f3a09	-0.17111982
137	0xbe5dbd0f	-0.21654151
138	0xbd154de2	-0.036451228
139	0x3e043ff3	0.1291502
140	0xbd9a6883	-0.07539465
141	0x3dd18790	0.102309346
142	0x3e521584	0.2051602
143	0xbcc698fd	-0.024242872
144	0x3d82ce8e	0.063870534
145	0xbe3ddbb9	-0.18540849
146	0x3d84b299	0.06479377
147	0xbdd7ea46	-0.10542731
148	0xbe62b5a4	-0.22139603
149	0x3e2d3900	0.16916275
150	0xbd07cc2b	-0.033153694
151	0x3c4a43f0	0.012345299
152	0x3deeb935	0.11656419
153	0xbbbc552d	-0.0057474584
154	0xbd8828ab	-0.06648382
155	0x3d44b55f	0.04802453
156	0x3e050c80	0.1299305
157	0x3e3db7db	0.18527167
158	0xbe3cd49f	-0.18440484
159	0xbd4988ec	-0.049202845
160	0xbdd578b8	-0.10423416
161	0x3c5ac462	0.013352485
162	0xbe1d93e7	-0.15388452
163	0xbdd30a96	-0.103047535
164	0xbdaae12f	-0.083437316
165	0xbdb6fec5	-0.08935312
166	0xbca20f96	-0.019782823
167	0xbdb05628	-0.08610183
168	0x3c52737d	0.012844917
169	0xba2756cc	-0.0006383478
170	0xbe51ce24	-0.20488793
171	0xbbeefdfa	-0.00729346
172	0xbdc3ba75	-0.09557048
173	0xbd210d3b	-0.03931926
174	0xbd8bb177	-0.06820958
175	0x3da42e02	0.08016588
176	0xbdb815c7	-0.08988529
177	0x3e482134	0.19543916
178	0x3d1726ef	0.036902364
179	0x3e1788f5	0.14798339
180	0xbe0d420d	-0.13794728
181	0x3e3e8423	0.18605094
182	0x3e4f5c8a	0.20250145
183	0x3dc1f0d3	0.09469762
184	0xbe52c430	-0.20582652
185	0x3e387635	0.18013842
186	0x3dc35b86	0.09538941
187	0x3e42be1d	0.19017835
188	0xbd5ca27c	-0.053865895
189	0x3e49eb31	0.19718625
190	0xbdcc1937	-0.09965747
191	0xbe2d7d3b	-0.16942303
192	0xbe196ab1	-0.14982106
193	0xbd257c3e	-0.04040169
194	0xbe3fc7ab	-0.18728511
195	0x3d0383e2	0.032108195
196	0x3e4c8585	0.19972809
197	0x3e5d2615	0.21596558
198	0x3e1a69c1	0.15079404
199	0x3c036977	0.00802075
200	0xbe532ca5	-0.206225
201	0x3e603ff0	0.2189939
202	0x3d1b5fe2	0.037933238
203	0xbe1dbb92	-0.15403584
204	0xbd96364a	-0.073345736
205	0xbdc1e117	-0.094667606
206	0xbcc1758e	-0.023615625
207	0x3daf60f9	0.08563418
208	0x3e41cac7	0.1892501
209	0x3e5edfc5	0.21765049
210	0x3e05ffe6	0.13085899
211	0x3d7de759	0.06198821
212	0x3c1913ff	0.009343146
213	0x3e42296b	0.18961112
214	0xbd1e7e80	-0.03869486
215	0xbdec6b20	-0.1154387
216	0x3cee2f5e	0.02907532
217	0x3e06e97f	0.13175009
218	0xbdb607a6	-0.088881776
219	0xbe4d1e6b	-0.20031135
220	0xbc41feb3	-0.01184051
221	0x3dfdc3e7	0.12390881
222	0x3ce45d03	0.027876383
223	0xbe1aa262	-0.15101007
224	0xbcaa0fd2	-0.020759497
225	0x3e587c64	0.21141201
226	0xbd19614f	-0.037446316
227	0x3e5640bb	0.2092313
228	0xbdae90df	-0.08523726
229	0xbdb0961a	-0.086223796
230	0xbdb08b6c	-0.086203426
231	0xbd6ef7e3	-0.058341872
232	0x3d52dcd0	0.051480114
233	0xbe4fb346	-0.20283231
234	0xbdc531eb	-0.09628662
235	0x3e420be9	0.18949856
236	0xbaf6a17c	-0.0018816437
237	0xbc8affc0	-0.016967654
238	0xbe0601b2	-0.13086584
239	0x3da0a094	0.07843128
240	0xbda04282	-0.07825185
241	0x3d376ab3	0.04477949
242	0xbc445a7f	-0.011984467
243	0x3daa63e3	0.08319833
244	0x3e2eefaa	0.17083612
245	0x3c94ae93	0.01814965
246	0xbe108c19	-0.14115943
247	0xbe0192c4	-0.12653643
248	0xbdbbca08	-0.09169394
249	0xbdae736b	-0.08518108
250	0x3e4e87ce	0.20168993
251	0x3e3ba5c8	0.1832496
252	0xbd7b6166	-0.061372183
253	0x3dda3c96	0.10656087
254	0xbe108e57	-0.14116798
255	0xbd6b0a06	-0.057382606
