data/models/trane_model_epoch_40.pth (torch, 423131 bytes, 2 tensors)

entity_embeddings.weight f4 [820, 128]
0.0800057 -0.0716284 0.07959639 0.11026751 0.08107793 -0.12183749 -0.07573608 0.09281931
-0.09002697 0.009451996 0.10935163 0.073126845 -0.087901145 -0.06278866 0.07526673 0.09387518
-0.06327731 -0.09790519 -0.09157025 0.091940016 0.03495944 -0.105563335 -0.08695443 -0.103716195
0.08665844 -0.093506984 -0.14339678 -0.086271845 -0.06824763 0.10620368 0.088877544 -0.116664775
-0.07635932 -0.09478156 -0.022465924 0.124290384 0.11506153 -0.02332877 0.0737845 -0.0051918468
-0.070178196 -0.032477118 -0.12643857 0.07721185 0.0948136 -0.05371574 -0.099076636 0.11476068
-0.023086533 0.064187415 0.10719197 0.124821074 0.08866624 -0.04369918 -0.09145606 -0.06270746
-0.025799839 0.09961751 0.092935026 -0.102830894 0.07841215 -0.096987285 0.058536578 0.09470335
0.06968933 0.099937014 0.061115 0.010178118 0.029365033 0.029809883 0.11751871 0.08901923
-0.05684553 0.07354945 -0.09941369 -0.10586342 0.065457754 -0.09463069 -0.0896473 -0.06861572
-0.046886224 0.07316416 0.11703341 0.115708046 -0.09655438 0.11218119 -0.13151121 0.10559351
-0.038312454 0.100047335 0.08526532 0.11107126 -0.07591038 -0.11077882 -0.04562591 -0.079735205
0.10774775 0.1310302 0.11192957 -0.051508304 -0.10149995 0.108497106 0.08140323 0.10802349
0.08665696 0.09844441 0.10658177 -0.058819994 -0.08193703 0.06603878 -0.104576424 -0.14328785
0.08866852 -0.09781484 0.063287854 0.06978361 0.09075387 0.11192127 0.13162278 -0.027182208
0.09174055 0.10387371 0.05371131 0.06612854 -0.06382259 0.09297392 0.06740933 -0.0849055
0.14670707 0.0018876863 0.10013771 0.102795176 0.0712944 -0.11075213 -0.054661997 0.057143968
-0.122615315 -0.0350932 0.09374422 0.1055333 -0.0959403 -0.05373027 0.09249807 0.12972893
-0.0994849 -0.08941311 -0.08066743 0.12891124 0.07898145 -0.11805817 -0.04992666 -0.0958494
0.0761909 -0.056031946 -0.11979008 -0.04214469 -0.063950285 0.138316 0.05882517 -0.13100268
-0.045125417 -0.030254697 -0.02127987 0.09289509 0.07044588 0.04035677 0.112767205 -0.027615357
-0.026674667 -0.07331676 -0.12390124 0.098199755 0.09194176 -0.03215373 -0.098066404 0.06820932
-0.016092049 0.06721009 0.08940376 0.12348106 0.08704111 -0.059129994 -0.08916534 -0.03479208
0.059263904 0.08452454 0.12633978 -0.11039281 0.106464826 -0.16436759 0.05940123 0.078554325
0.13153975 0.08510626 0.08941759 0.053835362 -0.009799761 0.040304553 0.12791654 0.09140918
-0.057551198 0.037431404 -0.07104725 -0.09662739 0.10918775 -0.053906202 -0.13353069 -0.09040033
-0.016436733 0.047046345 0.12876098 0.14292714 -0.049567785 0.0460414 -0.06046909 0.071111515
-0.121972226 0.039221402 0.07912113 0.07644094 -0.07090805 -0.11294776 -0.07009777 -0.054440282
0.13739903 0.089262106 0.08020739 -0.14034283 -0.10574251 0.12068907 0.06398176 0.098330416
0.08399573 0.08730394 0.106069766 -0.033165574 -0.060918957 0.070624694 -0.09773033 -0.0861613
0.09287199 -0.057699382 0.0590348 0.07425689 0.10032579 0.08906253 0.09602483 -0.0022613127
0.10471017 0.12968251 0.09054381 0.07800703 -0.02672506 0.12946364 0.0887846 -0.0849543
00000000: 07da a33d e9b1 92bd 6f03 a33d efd3 e13d
00000010: 300c a63d ef85 f9bd 851b 9bbd 0d18 be3d
00000020: 0f60 b8bd 8bdc 1a3c bff3 df3d 87c3 953d
00000030: 8405 b4bd 5797 80bd 7125 9a3d a141 c03d
00000040: 8997 81bd 8482 c8bd 2f89 bbbd 0c4b bc3d
00000050: a131 0f3d 9731 d8bd 2a15 b2bd 2869 d4bd
00000060: fb79 b13d 9780 bfbd 9bd6 12be 4baf b0bd
00000070: 6ac5 8bbd 5181 d93d 6e05 b63d f1ed eebd
00000080: 4662 9cbd d61c c2bd 750a b8bc f58b fe3d
00000090: 61a5 eb3d fa1b bfbc 541c 973d 5e20 aabb
000000a0: 96b9 8fbd ba06 05bd 1d79 01be 3f21 9e3d
000000b0: a22d c23d 0905 5cbd b1e8 cabd a607 eb3d
000000c0: f81f bdbc b174 833d 7787 db3d 31a2 ff3d
000000d0: a596 b53d e9fd 32bd 514d bbbd c56c 80bd
000000e0: 2f5a d3bc 4404 cc3d b854 be3d 0199 d2bd
000000f0: 8d96 a03d 45a1 c6bd 0dc4 6f3d d4f3 c13d
00000100: 48b9 8e3d c7ab cc3d b953 7a3d 1fc2 263c
00000110: f08e f03c db33 f43c a6ad f03d b74f b63d
00000120: dcd6 68bd 18a1 963d 6899 cbbd ecce d8bd
00000130: b70e 863d bccd c1bd 0199 b7bd 6686 8cbd
00000140: c50b 40bd 17d7 953d 36af ef3d 57f8 ec3d
00000150: 4ebe c5bd 40bf e53d e0aa 06be 6941 d83d
00000160: 85ed 1cbd 9ee5 cc3d 969f ae3d 5479 e33d
00000170: e776 9bbd 02e0 e2bd 3ce2 3abd 364c a3bd
00000180: daaa dc3d c82c 063e 553b e53d 5ffa 52bd
00000190: 35df cfbd bb33 de3d bdb6 a63d 6b3b dd3d
000001a0: 3479 b13d 399d c93d 8b47 da3d 3ced 70bd
000001b0: 9ace a7bd 573f 873d 2a2c d6bd 0dba 12be
000001c0: d797 b53d 2653 c8bd 109d 813d b6ea 8e3d
000001d0: 2add b93d fb36 e53d 1fc8 063e 39ad debc
000001e0: 78e2 bb3d bdbb d43d 6400 5c3d 666e 873d
000001f0: 6bb5 82bd 1c69 be3d e70d 8a3d efe2 adbd
00000200: 613a 163e 3e6c f73a 0015 cd3d 4786 d23d
00000210: cc02 923d 03d2 e2bd 42e5 5fbd cb0f 6a3d
00000220: bd1d fbbd e3bd 0fbd f8fc bf3d d821 d83d
00000230: 597c c4bd 4614 5cbd a16f bd3d a9d7 043e
00000240: bdbe cbbd 381e b7bd f734 a5bd 4f01 043e
00000250: 07c1 a13d 7bc8 f1bd e67f 4cbd b14c c4bd
00000260: f909 9c3d c181 65bd 8054 f5bd e99f 2cbd
00000270: 5ef8 82bd b6a2 0d3e a9f2 703d 9125 06be
00000280: 6ed5 38bd b3d8 f7bc 1f53 aebc c83f be3d
00000290: ee45 903d 244d 253d 7ef2 e63d 9a39 e2bc
000002a0: d584 dabc 1927 96bd efbf fdbd f41c c93d
000002b0: f64b bc3d a1b3 03bd 0ad7 c8bd 54b1 8b3d
000002c0: 79d3 83bc 72a5 893d 5219 b73d a3e3 fc3d
000002d0: 9c42 b23d 4b32 72bd 519c b6bd 2482 0ebd
000002e0: b5be 723d 341b ad3d 375f 013e a015 e2bd
000002f0: 3b0a da3d fa4f 28be b44e 733d 17e1 a03d
00000300: 5bb2 063e 314c ae3d 9220 b73d 7882 5c3d
00000310: 2d8f 20bc 6316 253d 8efc 023e bc34 bb3d
00000320: ceba 6bbd ac51 193d 3881 91bd 95e4 c5bd
00000330: d49d df3d c0cc 5cbd 45bc 08be cf23 b9bd
00000340: 54a6 86bc abb3 403d ebd9 033e 7e5b 123e
00000350: 9707 4bbd e895 3c3d 70ae 77bd eaa2 913d
00000360: 93cc f9bd 9fa6 203d 420a a23d 118d 9c3d
00000370: 3d38 91bd 2851 e7bd 6b8f 8fbd c6fc 5ebd
00000380: 55b2 0c3e 0dcf b63d c643 a43d 08b6 0fbe
00000390: 878f d8bd d52b f73d de08 833d 7561 c93d
000003a0: f405 ac3d 68cc b23d 1b3b d93d a0d8 07bd
000003b0: 2886 79bd aea3 903d d726 c8bd 5675 b0bd
000003c0: ab33 be3d 3056 6cbd 79ce 713d ff13 983d
000003d0: 9c77 cd3d 6a66 b63d aba8 c43d 8832 14bb
000003e0: 4972 d63d 7ecb 043e 086f b93d 26c2 9f3d
000003f0: 83ee dabc 1e92 043e b3d4 b53d 85fc adbd

relation_embeddings.weight f4 [4, 128]
0.14133444 0.12068688 0.16091487 0.15860978 0.1942737 -0.11530563 0.1454227 0.12418555
0.052749507 0.15094785 -0.0088868635 -0.14309476 0.16852863 -0.19083901 0.19675075 -0.10222289
0.16624212 0.17474858 -0.1926868 -0.17550068 0.11969749 0.09810003 -0.15685979 0.07757805
-0.21024528 0.16205701 -0.08219981 -0.1816432 0.17739302 -0.16295728 0.11975004 -0.0075965645
-0.157335 -0.1662257 -0.18246374 -0.20167285 0.08022392 0.073809996 0.19317456 -0.15803802
-0.04622821 0.20277946 -0.15976235 -0.14205669 -0.182185 0.16549778 0.13119452 -0.20131505
0.18930346 0.19383113 0.1371303 -0.037905 -0.19401425 -0.18370707 0.17601965 -0.1679872
0.20731945 -0.1771757 -0.013919128 -0.15311646 -0.0915696 0.11395355 -0.152257 0.18189457
-0.08738353 0.17644535 -0.17315848 0.16534989 0.020889103 -0.2052518 0.13698967 0.14433289
0.09547326 -0.16921961 0.20453903 0.12835206 -0.19843185 0.20012833 -0.10232211 0.20702589
-0.14180188 -0.039499976 0.016299548 -0.039767195 0.18389584 0.044660944 0.019590028 -0.18619595
-0.00078801694 -0.14133947 -0.16265096 0.10150405 -0.14027299 0.007059693 -0.2002874 0.18232687
-0.073864214 -0.0016912429 -0.14548407 -0.16033831 -0.16369778 -0.1802787 -0.1979852 -0.10996967
-0.20084673 0.1869086 0.20363806 0.20354776 -0.050747607 0.19823822 -0.20168635 -0.18376666
0.05229563 0.1808892 -0.10304099 0.19706969 -0.09554595 0.07123108 0.08046187 0.15638854
-0.052606482 -0.022003287 -0.027151141 -0.19220257 -0.20245098 -0.12039803 -0.1810481 -0.08287701
-0.023186328 -0.12768613 0.032551758 -0.030310556 0.22884227 -0.16552351 -0.059688386 -0.1017211
-0.03985312 0.228859 -0.19873069 0.05288864 0.0076845195 -0.11285032 0.15615474 -0.02576057
0.18217267 0.2068675 -0.18757927 0.041972443 0.19446349 -0.04974983 0.046142984 -0.11531982
-0.21478266 -0.061443057 0.040955454 -0.10631136 0.25450897 0.02190769 0.20663475 0.01925222
0.03527404 -0.23400137 -0.22372025 -0.092652895 -0.11332709 -0.0897715 0.06736782 -0.22162534
0.02777611 0.21650957 0.07495176 0.0987678 -0.06127939 0.06597559 -0.08301711 -0.052292317
0.16807292 0.120367065 0.22366154 -0.13893896 -0.072842784 -0.22901554 0.13595213 -0.043318894
0.1283934 -0.11962158 -0.19541597 0.05623338 0.09031165 0.02588828 0.06159292 0.17341234
0.14687575 0.0832723 -0.08818824 -0.045202773 0.19090113 -0.2303293 -0.100193314 -0.08123593
-0.11507426 0.018121216 0.08352307 -0.033099066 -0.046593197 0.2215993 -0.112253204 0.15775576
0.009502494 0.13673268 -0.14817633 0.065677375 0.069361106 0.1754284 0.08052684 -0.17111698
-0.1932895 0.0745188 0.017114803 -0.11681315 0.11194553 0.042332478 -0.19567093 0.17705898
-0.046875637 0.1331156 -0.03221795 0.014824721 0.017743904 0.031153863 -0.08341062 -0.2120185
-0.052710366 0.18320629 0.155597 0.17461707 0.15589628 0.16495328 -0.19832747 -0.13616906
-0.05599848 0.09427312 -0.015690764 0.19486888 0.09481283 -0.101353005 0.12055136 -0.08828995
-0.17304225 -0.1715755 0.12439327 -0.10251022 -0.18917647 -0.14510353 -0.0983236 -0.101414815
00000000: fab9 103e af2a f73d dec6 243e 9a6a 223e
00000010: afef 463e 5c25 ecbd b0e9 143e fe54 fe3d
00000020: de0f 583d 1392 1a3e 359a 11bc 6f87 12be
00000030: c592 2c3e 4d6b 43be 0779 493e 3c5a d1bd
00000040: 603b 2a3e 4bf1 323e b04f 45be 73b6 33be
00000050: f523 f53d abe8 c83d da9f 20be 3ee1 9e3d
00000060: 8a4a 57be 46f2 253e 6058 a8bd ad00 3abe
00000070: 84a6 353e 46de 26be 823f f53d 9aec f8bb
00000080: 6d1c 21be 1237 2abe c6d7 3abe 5483 4ebe
00000090: 704c a43d b229 973d 8dcf 453e b8d4 21be
000000a0: cb59 3dbd 6ba5 4f3e be98 23be 4f77 11be
000000b0: b48e 3abe 4078 293e db57 063e 8825 4ebe
000000c0: c4d8 413e ab7b 463e e36b 0c3e 4642 1bbd
000000d0: acab 46be b51d 3cbe 7f3e 343e d604 2cbe
000000e0: 8d4b 543e 8c6d 35be 0e0d 64bc 90ca 1cbe
000000f0: d888 bbbd 7b60 e93d 42e9 1bbe 9242 3a3e
00000100: 23f6 b2bd 17ae 343e 7550 31be 7b51 293e
00000110: a01f ab3c 872d 52be 0547 0c3e 00cc 133e
00000120: 7c87 c33d e847 2dbe ae72 513e b96e 033e
00000130: b831 4bbe 71ee 4c3e 418e d1bd 98fe 533e
00000140: 8334 11be baca 21bd a186 853c ede2 22bd
00000150: 314f 3c3e 65ee 363d 447b a03c 27aa 3ebe
00000160: ec92 4eba 4bbb 10be f98d 26be 5be1 cf3d
00000170: b9a3 0fbe ff54 e73b 2418 4dbe e5b3 3a3e
00000180: 1f46 97bd b2ac ddba c7f9 14be ba2f 24be
00000190: 64a0 27be fb9a 38be a2bc 4abe c737 e1bd
000001a0: c4aa 4dbe f864 3f3e 7f86 503e d36e 503e
000001b0: b9dc 4fbd f6fe 4a3e de86 4ebe 542d 3cbe
000001c0: f133 563d 053b 393e 2807 d3bd a3cc 493e
000001d0: 98ad c3bd 9ae1 913d 31c9 a43d 5124 203e
000001e0: e579 57bd 3d40 b4bc 126c debc c0d0 44be
000001f0: 4f4f 4fbe 3e93 f6bd ac64 39be 6cbb a9bd
00000200: 41f1 bdbc 27c0 02be fe54 053d d84d f8bc
00000210: a155 6a3e ff7e 29be cf7b 74bd 2753 d0bd
00000220: 063d 23bd 045a 6a3e 0f80 4bbe c2a1 583d
00000230: 6cce fb3b 121e e7bd 07e7 1f3e d507 d3bc
00000240: 798b 3a3e 13d5 533e c814 40be 4ceb 2b3d
00000250: 7021 473e 7ac6 4bbd 6d00 3d3d cc2c ecbd
00000260: fcef 5bbe b7ab 7bbd e8c0 273d c5b9 d9bd
00000270: 004f 823e c277 b33c 0f98 533e d5b6 9d3c
00000280: 837b 103d 0e9e 6fbe ec16 65be cdc0 bdbd
00000290: 0918 e8bd 1fda b7bd 24f8 893d c1f1 62be
000002a0: ba8a e33c afb4 5d3e 4f80 993d c646 ca3d
000002b0: 1900 7bbd 361e 873d e004 aabd 7830 56bd
000002c0: 4f1b 2c3e 0283 f63d 8807 653e 0446 0ebe
000002d0: 992e 95bd 0d83 6abe 0937 0b3e 276f 31bd
000002e0: 8f79 033e 29fc f4bd 201b 48be f954 663d
000002f0: 50f5 b83d a813 d43c dc48 7c3d 0193 313e
00000300: 9966 163e ab8a aa3d 099c b4bd 8b26 39bd
00000310: 967b 433e 72db 6bbe 2732 cdbd 065f a6bd
00000320: 0eac ebbd f272 943c 250e ab3d e392 07bd
00000330: 82d8 3ebd edea 623e 02e5 e5bd ba8a 213e
00000340: 59b0 1b3c a703 0c3e 89bb 17be dc81 863d
00000350: 320d 8e3d 81a3 333e 42eb a43d 4a39 2fbe
00000360: afed 45be 509d 983d 5834 8c3c bc3b efbd
00000370: b343 e53d d264 2d3d f65d 48be f34e 353e
00000380: ab00 40bd 754f 083e f8f6 03bd 63e3 723c
00000390: aa5b 913c 6336 ff3c 30d3 aabd 611b 59be
000003a0: d3e6 57bd 6e9a 3b3e d254 1f3e d1ce 323e
000003b0: 46a3 1f3e 83e9 283e 5b16 4bbe e76f 0bbe
000003c0: aa5e 65bd 4412 c13d eb89 80bc b58b 473e
000003d0: 3b2d c23d 2a92 cfbd a2e3 f63d 5cd1 b4bd
000003e0: fd31 31be 7db1 2fbe e6c1 fe3d e1f0 d1bd
000003f0: 7ab7 41be 0596 14be e25d c9bd 92b2 cfbd
