data/models/trane_model_best.pth (torch, 423115 bytes, 2 tensors)

entity_embeddings.weight f4 [820, 128]
00000000: e206 99bc 4925 9cbd cd81 dd3d 0091 c43d
00000010: f0cc 9abd 60b0 bc3d 523a b4bd 3cb7 08be
00000020: 04e8 b63d a86a 9fbd 1a94 f13d 63a1 b73c
00000030: 8f0f cc3d 83be 20be 26b4 83bd cad1 11be
00000040: a245 83bd 71da 95bc 0039 8c3d 7584 983d
00000050: 6502 843d 27e2 a73d abed ffbd c22b 8bbd
00000060: 3b5b 303d 9f72 863d 31eb d1bd 3540 a03d
00000070: b03a 9fbd 56a4 c93d fa7d 423d e8d5 ad3d
00000080: f69f 9dbd 3f62 fa3d 53bc f03d d548 8abd
00000090: 2eb5 b53c a5b5 c53c 7fad 3cbd aff5 273d
000000a0: f153 213d 5d9f 053e 0c9f bebd e7ea 9b3d
000000b0: cb6a a7bd 558f df3d 5f49 11be 9308 973c
000000c0: 38e0 bdbd b051 24be 7540 6e3d a352 d73d
000000d0: 9d31 a73d 6d54 c23d 071a c6bd 4f67 edbd
000000e0: dcbe 7e3d 8385 903d a784 f03b 9881 d7bd
000000f0: 3848 9abd 1549 cfbd 58e8 36bd 7721 d9bd
00000100: 17ef acbd 9f1b 85bd 1872 ac3d 556f 08be
00000110: 3af1 95bd f13e e1bd 9c86 a8bd 6718 54bd
00000120: ec20 bcbd dea2 c73d 47c8 e43c cf3c ffbc
00000130: 4235 d6bd 5a6b 923d 15e1 9abd 4fc9 cd3d
00000140: 62ec fdbd c6f1 62bd 31cd 30bd b477 e6bd
00000150: a47a 3f3d 186e ab3d a1d8 fbbd 95f6 053d
00000160: 0ec2 03bd 76d4 e4bc 29e2 933d d6b9 c03d
00000170: 4d0d cbbd 588f 8abd e7ef d3bd a3f5 933d
00000180: 41b8 e8bd 0061 e73c 2a15 97bd 24f9 b8bd
00000190: fa9e 653d 7b15 1e3e 554f cf3d 29de e2bd
000001a0: 6e08 e13d b7e1 0dbe 2233 c8bd 9214 b33d
000001b0: da1b bb3d 4eac c2bd 3d4d c1bd e93c f1bd
000001c0: 38cd 9e3d 387d aebd 162d d8bc c797 173e
000001d0: 6274 433d 9a80 b33d 9342 1c3d c53a 0dbe
000001e0: 2bc9 c1bd e829 123c db50 ccbd 845f cfbd
000001f0: eddd b2bd b359 b6bd 0440 99bc c38a 67bd
00000200: f700 91bc fa8d 1abd 3cc0 013e f9a0 6a3d
00000210: 20f1 fcbd 09ec ad3d 0683 d9bd afc9 c0bd
00000220: 738b b03d 0fd6 b7bd e50b b53d 96e3 6c3c
00000230: d5f0 743d 779e 54bd eaae d7bd f7a5 16be
00000240: a704 dabd 6e3a 7ebd fd8c 8a3d 272b 9c3d
00000250: 5343 223d d962 8a3d 9edc c4bd d068 6abd
00000260: c6b9 3e3b b1a5 003e 8bc8 b2bd 0ed3 533d
00000270: 1f90 c7bd 1c08 123e 4f52 6a3d c9ea 9c3d
00000280: ac84 bfbd 3955 e23d 44a0 943d 110c 6c3d
00000290: 3333 383d dfcd 9a3d a69f 19bd b65e e63d
000002a0: d3df 1b3d 6060 ff3d f1a2 f8bd 0143 263d
000002b0: 54b1 afbd 3b5f b83d 059b e1bd 1fe1 c33c
000002c0: ff4d cebd 0360 ebbd f474 c83d f060 b03d
000002d0: 05e0 c73d 7ce9 a73d 27ec b7bc 6e95 dcbd
000002e0: 5b2c 7c3d c4bd da3d 4c30 8fbd af3a 6bbd
000002f0: bad3 c5bd 1f90 85bd 3296 26bd 0e0f 91bd
00000300: 0405 ccbd 4f66 bfbd 2070 d73d d3e2 f5bd
00000310: 5841 e5bd ff50 6c3c 83a9 4dbd f78e 10bd
00000320: 9a8a abbd 835b e13d 9f0c a93d ca1b dabd
00000330: 1230 b8bd 97ae fb3d 77e1 e0bd 0150 f13d
00000340: 43c0 9fbd 10fe ebbd c39d b9bd cbba fdbd
00000350: e222 cb3d 6bb9 903c c034 acbd c3b3 963d
00000360: a2ee c6bc 8c3b 24bd 121d d53d acd9 e93d
00000370: 0608 ebbd 254b dbbd 836c e5bd c176 a63c
00000380: f9f9 0abe 9e99 b9bc 767d b9bd c09a 9bbd
00000390: f8a8 bc3d 97fd e43d 3e34 933d 4db7 9dbd
000003a0: f06d 003e 7644 11be 3609 cebd 02a0 bd3d
000003b0: e1ef 853d 18fc 91bd d805 d2bd 8d25 97bd
000003c0: da74 a03d bef7 a0bd a3a8 74bd fc53 c83d
000003d0: cade a63c 06b2 c73d daef ce3b 3064 fcbd
000003e0: 92a8 e4bd 72fd 08bc b621 eebd 9b99 01be
000003f0: 7945 9dbd 9d51 e2bd 963c 39bc a5fb adbd
-0.01868004 -0.07624299 0.10815773 0.09597969 -0.0755862 0.09213328 -0.08800186 -0.13351148
0.08930972 -0.07784015 0.11795826 0.022415822 0.09963905 -0.15697674 -0.06430845 -0.14240184
-0.06409766 -0.018292638 0.068468094 0.07447139 0.06445769 0.08197432 -0.124965034 -0.067954555
0.043055754 0.06564831 -0.10249937 0.078247465 -0.077748656 0.09845798 0.04748342 0.08488065
-0.07696526 0.1222577 0.1175467 -0.06752173 0.02218112 0.024134466 -0.046063896 0.041005787
0.039386693 0.13049074 -0.093076795 0.076131634 -0.08174666 0.1091601 -0.14188145 0.018436706
-0.09271282 -0.16046786 0.05816694 0.105138086 0.0816376 0.09488759 -0.09672933 -0.1159197
0.062193736 0.07056715 0.007340032 -0.10522765 -0.07533306 -0.10121361 -0.044655174 -0.10602086
-0.0844404 -0.06499409 0.08420199 -0.1332372 -0.07321401 -0.10998333 -0.082288 -0.051781084
-0.09185967 0.09747861 0.02792753 -0.031156925 -0.10459377 0.07149382 -0.07562462 0.10048162
-0.12398602 -0.055406354 -0.043164436 -0.112533 0.04674782 0.08370608 -0.12297178 0.032705862
-0.032167487 -0.02793334 0.07220871 0.094104454 -0.09914646 -0.06765622 -0.10348492 0.07224586
-0.11363269 0.028244495 -0.073770836 -0.09031895 0.056059815 0.15437882 0.10122553 -0.1107753
0.10987936 -0.13855635 -0.09775378 0.08744158 0.09136172 -0.09505521 -0.0943856 -0.11779196
0.07753986 -0.08519977 -0.026388686 0.14803992 0.047718413 0.08764763 0.038149428 -0.1379195
-0.09462198 0.008921124 -0.099763595 -0.1012564 -0.08733735 -0.089038275 -0.018707283 -0.056528818
-0.017700655 -0.037733056 0.12670988 0.05728242 -0.123506784 0.08492286 -0.10620694 -0.09413468
0.08620348 -0.08976375 0.08840159 0.014458558 0.059799988 -0.051908936 -0.10531409 -0.14711748
-0.106454186 -0.06206744 0.06765173 0.07625418 0.039614987 0.06757135 -0.09612392 -0.057228863
0.0029102429 0.12563206 -0.08729657 0.05171495 -0.09744286 0.14260906 0.0572074 0.07661969
-0.09351477 0.11051411 0.07257131 0.057628695 0.044970702 0.07558798 -0.03750577 0.112485334
0.038055252 0.12469554 -0.121404536 0.040591244 -0.085787445 0.09002539 -0.11015896 0.023911057
-0.1007347 -0.11492922 0.09787932 0.08612239 0.09759525 0.081988305 -0.022451473 -0.10770689
0.06156574 0.10680726 -0.06991634 -0.057429012 -0.09659524 -0.065216295 -0.04067058 -0.070829496
-0.09961894 -0.09345686 0.10519433 -0.12006154 -0.11194104 0.014423608 -0.050210487 -0.035292592
-0.083760455 0.110037826 0.082543604 -0.106498316 -0.08993544 0.1228916 -0.10980504 0.11782838
-0.07800343 -0.11523068 -0.09063294 -0.123891436 0.09918763 0.01766654 -0.08408499 0.073585056
-0.02428371 -0.04009585 0.10405935 0.11418471 -0.1147614 -0.10707692 -0.112023376 0.020320298
-0.1357192 -0.022656258 -0.09057133 -0.075978756 0.09211916 0.11181181 0.07187699 -0.077009775
0.12541938 -0.14186272 -0.100603506 0.09259035 0.06539894 -0.07128161 -0.10255021 -0.07380209
0.07834788 -0.07859753 -0.059731137 0.09781644 0.020369906 0.09750752 0.0063152136 -0.12323797
-0.11164965 -0.008361207 -0.116275236 -0.12656252 -0.076792665 -0.11050723 -0.011305949 -0.08495263

relation_embeddings.weight f4 [4, 128]
00000000: e181 55be baf3 373e fb10 be3d 6df1 393e
00000010: 25a1 493e 7224 60be dbbb 1d3d 0be0 15be
00000020: 0a22 493e 1d57 df3d b0da 28be 0013 3b3e
00000030: 97b0 39be cac3 983d d057 30be 0e99 84bc
00000040: 9261 26be 1abf 383d bb7c 42be cd42 15be
00000050: 2c96 26be 9ac7 0c3e 07d1 8d3d f471 133e
00000060: cd25 383d 64a8 a7bd 6153 2f3e 26c0 4d3e
00000070: 5e21 33be 46ed 023e 3273 18be 316e 5c3c
00000080: 50b1 46bd 8f26 10be fde3 113e f0ab 353e
00000090: bc85 373d c845 0a3e 453d 14be 49ae d5bd
000000a0: 5fc1 24be aac0 e23d fb82 1ebe 3361 393e
000000b0: 77cc 2f3e dbd0 49be a62f babd 2403 423e
000000c0: 641a 53be f0a1 63bd 6cfe f23d c27d a83d
000000d0: c612 5ebd 3023 49be 433a 44be 3d0a 513c
000000e0: 4686 46be 652d 4c3e a88b 1a3e 7470 20be
000000f0: 1988 1abe f5d4 2e3e 2765 1fbe 84b9 583e
00000100: ad91 39be ffd5 1c3e e26d 32be 72de e1bd
00000110: 3dfc 32be 5302 d5bc edf4 6b3e 033b fc3d
00000120: 870b 603e 6e09 52be d136 1d3e eead 0abe
00000130: 28e6 223e a72c 303e e9c9 5cbe a20a 58be
00000140: 6c49 d4bd ee9e c7bc 0ce2 d0bd e95b 6d3d
00000150: ba38 273e 9d55 57be 2b03 32be a651 3fbe
00000160: 560a 283e c52d 453e 39ed 043e 86a1 41be
00000170: 333e 4e3e 4aae 053e c4f0 1b3e 9200 53be
00000180: e414 043e 8d30 283e d6ca a8bd c19f 373e
00000190: 3cdf 47be f7fb f93d ca62 293e 6d62 30be
000001a0: ba32 133e 56d9 10be 9762 06be 356d 4bbe
000001b0: 6edd 53be 3794 4ebe 8cf6 393e 7122 473e
000001c0: 1836 273e b0e8 24be a281 d7bd 0a4f 3c3e
000001d0: 6160 3fbe a3a1 25be a250 3e3e a637 ed3d
000001e0: 2b9f 343e 1e0b cb3d 84f1 443e 670c 20be
000001f0: c362 3cbe 50d3 6c3e 76d7 263e ea0b 35be
00000200: 6816 a63c 690b c5bd 379d a33d 8612 d03d
00000210: 2950 f13d 6646 5bbc cc45 b23d e23e 9dbc
00000220: 2106 02bd ac08 43bc 37b6 35be 62fc 133c
00000230: 92cc a43d 8f95 ef3c 2b54 dbbd 614a 1d3d
00000240: 0a68 68be eb95 31be f50b 18be 4fe8 683d
00000250: 6bcb 51be 979d 073e 310a 3d3e 782e ddbc
00000260: 77de 4b3e eaae 1d3e 8ca7 ddbd 04f5 293e
00000270: f67f 4abe df1a 433e 0e41 cd3d a1b5 83bd
00000280: e61c 4abe b40c 62be 78fe c0bd c242 ee3d
00000290: 00b3 17be 95b1 f8bc 55da 36be 4fe4 d53d
000002a0: 15e0 61be e7a4 e7bd 9fda 0ebd 9b54 c1bd
000002b0: 124d 5b3e 0842 19be 8bf7 073e 8853 403e
000002c0: 4063 90bd 912a 00bc e0c3 fc3d 6e4a 2c3c
000002d0: 1acc 903d 6343 fbbd d14b 663d 0593 d9bd
000002e0: 1c3c 56be 9521 923d 7efc 653e 1f48 3cbe
000002f0: 100d 8abd b9ee 0b3e c534 5abe 78d2 003e
00000300: 8e08 1abd 3b89 24bd 9cf7 fa3b e8ba 033e
00000310: da54 26bd 3f40 013e ebe5 1b3e c8af 683e
00000320: b964 3d3e 8ca0 4bbe b666 663e 79a8 f8bd
00000330: c27d 36bd 83f0 8b3c 34d2 23be 3208 a2bd
00000340: 1613 213e aa7b 4abe 5b52 37be 8381 26be
00000350: 1e92 593e fd26 d7bd 6ea0 123d f2c6 95bd
00000360: 4f2d 673e 0507 293e 4f1b 1c3e 9202 6d3d
00000370: 18b6 f1ba 8161 1bbe 9358 f7bc c384 a4bc
00000380: a499 ac3d c63f 0c3e 14b4 d3bd 291e 433e
00000390: d019 7ebd 7d3a 30bc f8cc 8fbd aeec 03be
000003a0: 278a 923c 3e42 843d 17bc d63d d0c4 40be
000003b0: a799 06bd 82bd 2e3d 8915 4c3e 9a44 b03d
000003c0: e038 b4bd abfe 48be cfd3 52be b5ad 8fbd
000003d0: 0797 9cbd edb4 5fbe fa50 323e c8b7 0f3e
000003e0: 7cab d83d d18b 29be 4d6b 173e 5de7 503d
000003f0: 2223 51be e77e 213e c0d1 4d3e 617f 45be
-0.20850326 0.17964068 0.092805825 0.18158503 0.19690378 -0.21888903 0.03850923 -0.14636247
0.19641891 0.109052874 -0.16489673 0.18268967 -0.1813377 0.07459219 -0.17220998 -0.016186263
-0.16248158 0.045104124 -0.18992893 -0.14576264 -0.16268224 0.13748017 0.069246344 0.14398938
0.044957925 -0.08186415 0.1712165 0.2009283 -0.17493197 0.12785825 -0.14887694 0.013454006
-0.048508942 -0.14077209 0.14247127 0.1774137 0.044805273 0.13503182 -0.14476497 -0.10433633
-0.1608939 0.11071904 -0.15479653 0.18103485 0.17167841 -0.19708578 -0.090911195 0.1894651
-0.20615536 -0.055574358 0.11864933 0.082271114 -0.054217122 -0.19642329 -0.1916285 0.012758789
-0.19387159 0.19939192 0.15092337 -0.15667897 -0.1509098 0.17073424 -0.1556593 0.21164519
-0.18121977 0.15316008 -0.1742473 -0.11028756 -0.17479034 -0.026002085 0.2304265 0.12315943
0.21879397 -0.2051141 0.15352942 -0.13542911 0.1590811 0.17204534 -0.21561398 -0.21097806
-0.103655666 -0.024367776 -0.10199365 0.05794898 0.16330233 -0.21028753 -0.17384021 -0.1868349
0.16410193 0.19255741 0.12981118 -0.18909273 0.20140915 0.13054767 0.15228564 -0.20605686
0.12898594 0.1642477 -0.08241813 0.17932035 -0.19518751 0.122062616 0.16541591 -0.17225046
0.1437482 -0.14145407 -0.13123547 -0.19865878 -0.20689937 -0.20173727 0.18160456 0.19446732
0.16329229 -0.16104388 -0.10522772 0.18389526 -0.1868911 -0.16174941 0.18585446 0.1158288
0.17638843 0.0991423 0.19232756 -0.15629731 -0.1839705 0.23127484 0.1629313 -0.17680326
0.020274356 -0.09621317 0.07988971 0.10159783 0.117828675 -0.0133834835 0.08704719 -0.019195024
-0.031744126 -0.011903923 -0.1774529 0.009032341 0.08046831 0.02924612 -0.10709413 0.03840101
-0.22695938 -0.17342345 -0.14848311 0.05686217 -0.20487754 0.1324371 0.18460919 -0.026999697
0.19909082 0.15398756 -0.10822973 0.16597372 -0.19775376 0.1905322 0.10022174 -0.06431127
-0.19737586 -0.22075158 -0.09423536 0.11633827 -0.14814377 -0.030358115 -0.17856725 0.10443937
-0.22058137 -0.113107495 -0.034876462 -0.09439965 0.21416119 -0.14966595 0.13278024 0.18781865
-0.070501804 -0.007822649 0.12342048 0.010515792 0.07070179 -0.12268712 0.056224648 -0.10623745
-0.20921367 0.071353115 0.224596 -0.18386887 -0.06740773 0.13665284 -0.21309192 0.12580287
-0.037605815 -0.040169936 0.007658912 0.12864268 -0.040608265 0.12622164 0.15224425 0.22723305
0.18495454 -0.19885463 0.22500119 -0.121415086 -0.044553526 0.017082458 -0.15998155 -0.079117194
0.15729937 -0.19773737 -0.1790251 -0.16260342 0.21247146 -0.10505483 0.03579753 -0.073133364
0.22575878 0.16506584 0.15244792 0.05786378 -0.0018441109 -0.15173914 -0.030193603 -0.020082837
0.08427742 0.13696203 -0.103370816 0.19054474 -0.062036335 -0.010756132 -0.070215166 -0.12883255
0.017888142 0.06457947 0.10485094 -0.18825078 -0.032861378 0.042661197 0.1993009 0.08606835
-0.087999105 -0.19628398 -0.20588611 -0.07015554 -0.07645994 -0.21846361 0.17413703 0.1403495
0.10579583 -0.16557242 0.14787026 0.051001895 -0.20423558 0.15771066 0.20099545 -0.19286872
