data/models/trane_model_epoch_20.pth (torch, 423131 bytes, 2 tensors)

entity_embeddings.weight f4 [820, 128]
0	0xbb19b355	-0.0023452837
1	0xbdc6c028	-0.0970462
2	0x3da990a0	0.08279538
3	0x3dbc8e3a	0.09206815
4	0xbdc81fb6	-0.097716734
5	0x3dfdbcb7	0.1238951
6	0xbde04b33	-0.10951843
7	0xbdfbaeca	-0.12289198
8	0x3d2f407a	0.0427861
9	0xbdb6543b	-0.089027844
10	0x3e0ec84a	0.13943592
11	0xbc8987b7	-0.016788347
12	0x3df5f8b9	0.12010331
13	0xbe286683	-0.16445355
14	0xbd9481b6	-0.07251303
15	0xbe079024	-0.13238579
16	0xbd83dac1	-0.06438208
17	0xbd1cb819	-0.038261507
18	0x3db6f20e	0.08932887
19	0x3dd59190	0.104281545
20	0x3d138745	0.036017675
21	0x3d90e19e	0.07074283
22	0xbdeb8fc5	-0.11502031
23	0xbd9d3d62	-0.076777235
24	0x3d198494	0.037479952
25	0x3d9b5d60	0.07586169
26	0xbe01024d	-0.12598534
27	0x3d9259d8	0.071460426
28	0xbd94817f	-0.07251262
29	0x3dc15b07	0.0944119
30	0x3d71b022	0.059005864
31	0x3d8a3d7d	0.06750009
32	0xbd9a6ff9	-0.07540888
33	0x3de11bd1	0.10991634
34	0x3daf978e	0.08573829
35	0xbd8cdf81	-0.068785675
36	0xbc67ce23	-0.014148268
37	0xbaa6d8fd	-0.0012729462
38	0xbd1efd5e	-0.03881585
39	0x3d415810	0.047203124
40	0x3cf0d589	0.029398696
41	0x3de186de	0.11012052
42	0xbda285e2	-0.07935692
43	0x3d43a637	0.047765937
44	0xbda0a0b7	-0.07843154
45	0x3de9bd39	0.114130445
46	0xbdf6ffc3	-0.120605014
47	0x3b1b5b39	0.0023705496
48	0xbdc736ab	-0.09727224
49	0xbe27c28e	-0.1638281
50	0x3d3160dd	0.043305267
51	0x3dad7151	0.08468879
52	0x3dbdc944	0.09266904
53	0x3de61799	0.1123497
54	0xbd95fb3d	-0.073233105
55	0xbdff8f77	-0.124785356
56	0x3d84da71	0.06486977
57	0x3d66b8ba	0.056328513
58	0x3c7aa8cf	0.015299036
59	0xbe0101cc	-0.12598342
60	0xbd7ed095	-0.062210638
61	0xbddc5c2c	-0.10759768
62	0xbd1d08f0	-0.0383386
63	0xbdffb29a	-0.124852374
64	0xbd90c44c	-0.07068691
65	0xbda44e86	-0.0802279
66	0x3de1c6d4	0.110242516
67	0xbddb2e49	-0.107021876
68	0xbd8b2783	-0.06794646
69	0xbd91eb92	-0.071250096
70	0xbdc09e4f	-0.09405195
71	0xbd84c215	-0.06482331
72	0xbdeedfc9	-0.116637774
73	0x3debc4c3	0.11512139
74	0x3c41f18e	0.011837376
75	0xbc9eacae	-0.01936945
76	0xbde43687	-0.11143213
77	0x3d6b8191	0.05749661
78	0xbd8765d1	-0.06611217
79	0x3dc9eb11	0.098592885
80	0xbdeeb9c9	-0.116565295
81	0xbd94dfd4	-0.07269254
82	0xbd4450ec	-0.047928736
83	0xbde7c9e7	-0.11317807
84	0x3d498619	0.04920015
85	0x3d9c588d	0.07634077
86	0xbde54713	-0.11195197
87	0x3d1d18dd	0.03835379
88	0xbd23b986	-0.03997185
89	0xbd15b93e	-0.036553614
90	0x3dacc963	0.08436849
91	0x3de95b45	0.113943614
92	0xbdfbd8df	-0.12297224
93	0xbdadbf1d	-0.084837176
94	0xbddc0320	-0.107427835
95	0x3d9ee333	0.077581786
96	0xbe014852	-0.12625244
97	0x3a8e4024	0.0010852856
98	0xbdaf5ceb	-0.085626446
99	0xbdc924ec	-0.098214954
100	0x3d87c7b2	0.06629886
101	0x3e00cde6	0.12578544
102	0x3d400341	0.046878103
103	0xbdb0e478	-0.08637327
104	0x3dc58152	0.096438065
105	0xbe0b324d	-0.13593407
106	0xbd9991be	-0.07498501
107	0x3dd8da09	0.10588462
108	0x3dc2f1f8	0.09518808
109	0xbd923198	-0.071383655
110	0xbdcff93e	-0.10154961
111	0xbe0a3d3d	-0.13499923
112	0x3d98b092	0.07455553
113	0xbdb17afc	-0.086660355
114	0xbce31bd5	-0.027723232
115	0x3e12d2de	0.14338252
116	0x3d744b0c	0.059641883
117	0x3da9b441	0.08286334
118	0x3c9ef6bb	0.01940476
119	0xbe0a1b1b	-0.13486902
120	0xbdf45a00	-0.11931229
121	0xbc91673a	-0.017749418
122	0xbdd2166a	-0.102581814
123	0xbd82ec31	-0.06392706
124	0xbdae2de5	-0.085048474
125	0xbdce4a56	-0.10072772
126	0xbc89765a	-0.016780067
127	0xbd43cd93	-0.047803473
128	0xbd4fd54f	-0.050740536
129	0xbd11b14b	-0.03556947
130	0x3dc13376	0.094336435
131	0x3d933238	0.07187313
132	0xbe0e5881	-0.13900949
133	0x3da063e8	0.078315556
134	0xbdb5f169	-0.08883936
135	0xbdb6f2ed	-0.08933053
136	0x3dc26181	0.09491254
137	0xbdf155b2	-0.11783923
138	0x3db8fc2c	0.09032473
139	0xbc8d0602	-0.017214779
140	0x3d8399c3	0.06425812
141	0xbd9698e1	-0.07353378
142	0xbde0a1f9	-0.10968394
143	0xbdf2a50a	-0.11847885
144	0xbde5cd1a	-0.11220761
145	0xbd423b33	-0.047419738
146	0x3d9bc4d7	0.076059036
147	0x3db06bdb	0.08614322
148	0x3d2c6956	0.042092644
149	0x3d175692	0.036947794
150	0xbdcf3f8c	-0.101195425
151	0xbda1c130	-0.07898176
152	0x3c52690a	0.012842426
153	0x3dfe0a2e	0.12404285
154	0xbdb7eb4b	-0.089804254
155	0x3d83f936	0.064440176
156	0xbdae2bf2	-0.08504476
157	0x3e0fd7b4	0.14047128
158	0x3d9d7edb	0.076902114
159	0x3d89abda	0.06722231
160	0xbdaf68c0	-0.08564901
161	0x3dcd474d	0.10023365
162	0x3d99df7d	0.0751333
163	0x3d2402ac	0.04004161
164	0x3d3a4ecf	0.045485314
165	0x3cf01033	0.0293046
166	0xbd6841f5	-0.056703527
167	0x3de365ed	0.11103425
168	0x3cd072c5	0.025445351
169	0x3dddaa80	0.10823536
170	0xbe0e822d	-0.13916846
171	0x3cc6ea90	0.02428177
172	0xbdbd1682	-0.09232809
173	0x3dd75bc6	0.10515551
174	0xbddc1fa0	-0.107482195
175	0x3cc2a4e4	0.023760267
176	0xbdf3aa80	-0.11897755
177	0xbdeffba4	-0.117179185
178	0x3ddbc984	0.107317954
179	0x3d86a540	0.06574488
180	0x3dc7bfee	0.097534046
181	0x3dc24d6d	0.09487424
182	0xbc6598d6	-0.01401349
183	0xbdcdcbcc	-0.10048637
184	0x3d84f477	0.064919405
185	0x3dad14ab	0.08451208
186	0xbd297fb8	-0.041381568
187	0xbd9e4c76	-0.077294275
188	0xbd81dd42	-0.0634103
189	0xbd7043aa	-0.05865828
190	0xbd1dd5ea	-0.038534082
191	0xbd961d25	-0.07329778
192	0xbdb1f263	-0.0868881
193	0xbde68f69	-0.11257822
194	0x3de7df75	0.11321918
195	0xbde5e1e6	-0.11224727
196	0xbdde56b3	-0.1085638
197	0xbbbd95a9	-0.005785663
198	0xbd780e8f	-0.06056076
199	0xbc4df507	-0.012570626
200	0xbdb59e2e	-0.08868061
201	0x3dd6308c	0.10458478
202	0x3da518b0	0.080613494
203	0xbdc585b5	-0.09644643
204	0xbdcf6cdd	-0.10128186
205	0x3deadd30	0.114679694
206	0xbdefbd0e	-0.11705981
207	0x3df0e358	0.117621124
208	0xbdabc8af	-0.08387887
209	0xbddf7932	-0.10911788
210	0xbdee8e50	-0.11648238
211	0xbdd099cf	-0.10185587
212	0x3dd4e77a	0.10395713
213	0x3cb4e744	0.022082932
214	0xbdb4b114	-0.088228375
215	0x3d8986d8	0.067151725
216	0xbcaacb74	-0.020848967
217	0xbcd71728	-0.026256159
218	0x3dd6eb6f	0.10494124
219	0x3df48635	0.119396605
220	0xbe0e04df	-0.13869046
221	0xbe01288a	-0.1261312
222	0xbde76579	-0.11298651
223	0x3d07e6c5	0.033179063
224	0xbe11e30f	-0.14246772
225	0xbd018633	-0.031622123
226	0xbdb593d1	-0.08866084
227	0xbd99fd7f	-0.07519054
228	0x3d8478ae	0.0646833
229	0x3dc5adb0	0.09652269
230	0x3d6fd7b9	0.05855534
231	0xbd1b78c2	-0.03795696
232	0x3df7df94	0.12103191
233	0xbe0b8ef4	-0.13628751
234	0xbdd258e5	-0.102708615
235	0x3dc865b7	0.097850256
236	0x3d9a30c2	0.07528831
237	0xbd9b0291	-0.07568849
238	0xbdda8fec	-0.10671982
239	0xbda0e0f8	-0.078554094
240	0x3db26cfa	0.08712192
241	0xbdb0ad0e	-0.086267576
242	0xbd81a4e0	-0.063302755
243	0x3da61428	0.08109313
244	0x3d46ffc0	0.048583746
245	0x3dbcb0c6	0.09213404
246	0xbab55c77	-0.0013836761
247	0xbdfcf679	-0.123516984
248	0xbdea681f	-0.11445641
249	0xbc043b36	-0.008070758
250	0xbdf17b35	-0.11791078
251	0xbde5a13d	-0.112123944
252	0xbda8e2a7	-0.082463555
253	0xbe088585	-0.13332184
254	0x3be5546c	0.0069985893
255	0xbdb4a9d0	-0.08821452

relation_embeddings.weight f4 [4, 128]
0	0xbe81587c	-0.2526282
1	0x3e5c5f25	0.2152067
2	0x3dd7c1b7	0.10534995
3	0x3e5bd0ff	0.21466444
4	0x3e72f3ac	0.23725766
5	0xbe89a7bc	-0.26885784
6	0x3cf05f9d	0.029342467
7	0xbe2f41b6	-0.1711491
8	0x3e750d08	0.23930752
9	0x3df30154	0.11865488
10	0xbe3e66ca	-0.18593898
11	0x3e4eb681	0.20186807
12	0xbe628a5c	-0.22123092
13	0x3dab60c8	0.08368069
14	0xbe4e112a	-0.20123735
15	0xbcc66f40	-0.02422297
16	0xbe39fbcf	-0.18162464
17	0x3d79d49e	0.060993783
18	0xbe6dbbe5	-0.23216207
19	0xbe277d07	-0.16356288
20	0xbe484508	-0.19557583
21	0x3e23b149	0.15985598
22	0x3da94f24	0.08267048
23	0x3e24440a	0.1604158
24	0x3d3cadaf	0.046064075
25	0xbdd8ff99	-0.105956264
26	0x3e53f01b	0.20697062
27	0x3e7bd1a0	0.24591684
28	0xbe47a592	-0.19496754
29	0x3e137c77	0.14402948
30	0xbe32a305	-0.17445
31	0x3d05966b	0.032614153
32	0xbd9ee642	-0.07758762
33	0xbe2b4cf0	-0.16728568
34	0x3e26a5e1	0.16274215
35	0x3e58df77	0.21178995
36	0x3d4a433f	0.049380537
37	0x3e1633e6	0.14668235
38	0xbe282a4e	-0.16422388
39	0xbdf756ce	-0.120771036
40	0xbe4722b1	-0.19446827
41	0x3dfcf755	0.12351862
42	0xbe36a993	-0.17838125
43	0x3e5d98d5	0.21640332
44	0x3e453519	0.19258536
45	0xbe7a5e32	-0.24449995
46	0xbdb8086d	-0.08985982
47	0x3e6c9064	0.23101956
48	0xbe7e4d9c	-0.24834293
49	0xbd67c9fd	-0.056589115
50	0x3e187b0f	0.14890693
51	0x3dc08f44	0.09402326
52	0xbd73476a	-0.059394278
53	0xbe74afbd	-0.23895164
54	0xbe6fe053	-0.23425417
55	0x3cc7e95f	0.024403272
56	0xbe72398d	-0.23654766
57	0x3e6dc999	0.23221435
58	0x3e38d3a2	0.18049482
59	0xbe321be8	-0.17393458
60	0xbe3cdfcf	-0.18444751
61	0x3e62777d	0.22115894
62	0xbe33ac8e	-0.17546293
63	0x3e86c7e6	0.26324385
64	0xbe609907	-0.21933375
65	0x3e3cce3c	0.18438047
66	0xbe56137e	-0.20905873
67	0xbe0595bc	-0.130454
68	0xbe54600f	-0.20739768
69	0xbc86c582	-0.016451601
70	0x3e9b036d	0.3027605
71	0x3e190ee0	0.1494708
72	0x3e8a759f	0.27042863
73	0xbe8155f8	-0.252609
74	0x3e39fc44	0.18162638
75	0xbe1431ea	-0.14472166
76	0x3e30b1aa	0.17255273
77	0x3e4df60e	0.20113394
78	0xbe89068a	-0.267628
79	0xbe852dbe	-0.2601146
80	0xbdd97b5c	-0.10619232
81	0xbd1f8d3a	-0.038953044
82	0xbdf4fd16	-0.11962335
83	0x3d9ba530	0.075998664
84	0x3e36f3fc	0.1786651
85	0xbe7c1673	-0.24617939
86	0xbe52faa6	-0.20603427
87	0xbe610471	-0.2197435
88	0x3e4a9a71	0.19785477
89	0x3e6c38e9	0.23068585
90	0x3e18a4c1	0.14906599
91	0xbe691cc2	-0.22764876
92	0x3e7ae5e0	0.24501753
93	0x3e1e3afc	0.15452188
94	0x3e354efd	0.17705913
95	0xbe7d5135	-0.2473801
96	0x3e12f98b	0.14353006
97	0x3e3a7921	0.1821027
98	0xbdc04db2	-0.09389819
99	0x3e4eda35	0.20200427
100	0xbe5bc1e9	-0.2146069
101	0x3e104718	0.1408962
102	0x3e432a94	0.19059211
103	0xbe4dced7	-0.20098434
104	0x3e2b8df2	0.16753367
105	0xbe243f4c	-0.16039771
106	0xbe121532	-0.14265898
107	0xbe78a1f5	-0.24280532
108	0xbe800238	-0.25001693
109	0xbe81d5a4	-0.25358307
110	0x3e5be88c	0.21475428
111	0x3e67b46e	0.22627422
112	0x3e492504	0.19643027
113	0xbe3f9171	-0.18707825
114	0xbdffb71f	-0.124860995
115	0x3e604bc9	0.2190391
116	0xbe56a2dd	-0.20960565
117	0xbe40717e	-0.18793294
118	0x3e6039bd	0.21897025
119	0x3e04ff2a	0.12987962
120	0x3e50449b	0.20338671
121	0x3dd6d158	0.10489148
122	0x3e623a9e	0.22092673
123	0xbe379816	-0.1792911
124	0xbe6619d1	-0.22470786
125	0x3e9301ad	0.28712216
126	0x3e438b39	0.19096078
127	0xbe57df56	-0.2108129
128	0x3d0c9342	0.034320123
129	0xbe029acc	-0.12754363
130	0x3dc4adb8	0.09603447
131	0x3e0cc248	0.13745987
132	0x3e07baae	0.13254806
133	0xbafe37e8	-0.0019395323
134	0x3dec6e4d	0.11544476
135	0xbd1a8acb	-0.03773002
136	0xbd36129b	-0.044451337
137	0xbd1730fa	-0.036911942
138	0xbe4fa364	-0.20277172
139	0x3c808066	0.015686225
140	0x3e0befe2	0.13665727
141	0x3cd9b406	0.0265751
142	0xbe21a12e	-0.15784141
143	0x3c9fa54d	0.019488001
144	0xbeaa80e5	-0.33301464
145	0xbe511986	-0.20419893
146	0xbe3a4346	-0.18189725
147	0x3d9c1965	0.07622031
148	0xbe8fe66f	-0.28105494
149	0x3e2a3073	0.16620044
150	0x3e6c91c9	0.23102488
151	0xbd211122	-0.03932298
152	0x3e6c2203	0.2305985
153	0x3e3b4855	0.18289311
154	0xbe0293a5	-0.12751634
155	0x3e70025e	0.23438403
156	0xbe86f933	-0.26362
157	0x3e6e63a7	0.23280202
158	0x3ddd81b4	0.108157545
159	0xbd875b64	-0.06609228
160	0xbe91d5e4	-0.28483498
161	0xbe875221	-0.26429847
162	0xbde0f109	-0.10983474
163	0x3e1756f6	0.14779267
164	0xbe599d88	-0.212515
165	0xbcec2d24	-0.028830118
166	0xbe7e2c23	-0.24821524
167	0x3de4ad48	0.11165863
168	0xbe7cdace	-0.24692842
169	0xbdf233de	-0.11826299
170	0xbca08658	-0.01959531
171	0xbde33f5a	-0.11096068
172	0x3e87e760	0.26543713
173	0xbe4f1eaf	-0.20226549
174	0x3e250787	0.16116153
175	0x3e5ca4b9	0.21547212
176	0xbd89f11c	-0.06735441
177	0x3cc8343b	0.024438968
178	0x3df42d64	0.1192272
179	0xbb99cd02	-0.0046936283
180	0x3db502f0	0.08838451
181	0xbe0fda4d	-0.14048119
182	0x3d78a520	0.06070435
183	0xbe0476cf	-0.12935947
184	0xbe9962ca	-0.29958183
185	0x3d83142d	0.064003326
186	0x3ea49d0f	0.32151076
187	0xbe80a7d2	-0.25128037
188	0xbdaaa321	-0.083318956
189	0x3e3ad89a	0.1824669
190	0xbe9e3628	-0.30900693
191	0x3e203342	0.15644553
192	0xbd1225d1	-0.035680596
193	0xbd4b2b59	-0.049601886
194	0xbba5568d	-0.005045718
195	0x3e2c6f39	0.16839303
196	0xbd16bf45	-0.036803503
197	0x3e064f9f	0.1311631
198	0x3e226693	0.15859441
199	0x3eadae98	0.33922267
200	0x3e5c1f28	0.2149626
201	0xbe83d0b5	-0.25745168
202	0x3e99c87e	0.30035776
203	0xbe1e2df9	-0.15447225
204	0xbd3ad0d4	-0.04560931
205	0x3cd9728b	0.026543876
206	0xbe2dccfb	-0.16972725
207	0xbda2f331	-0.07956541
208	0x3e472fa6	0.1945177
209	0xbe69b6f4	-0.22823697
210	0xbe649739	-0.22323312
211	0xbe58784c	-0.2113964
212	0x3e866dde	0.26255697
213	0xbdfa8aec	-0.122335285
214	0x3d4ee1ee	0.050508432
215	0xbda12d26	-0.078699395
216	0x3e9aa370	0.30202818
217	0x3e385eea	0.18004957
218	0x3e36fd9e	0.17870185
219	0x3d93b9d7	0.072131805
220	0x3c057424	0.008145366
221	0xbe35ef49	-0.17767061
222	0xbd67f23f	-0.05662751
223	0xbccc3dfb	-0.024931898
224	0x3dce2b06	0.100668
225	0x3e1c0781	0.15237238
226	0xbdf15cd6	-0.11785285
227	0x3e5a9c83	0.21348767
228	0xbd876379	-0.0661077
229	0xbca83b94	-0.020536222
230	0xbdd5775e	-0.10423158
231	0xbe12e0c5	-0.14343555
232	0xbcff87b7	-0.031192644
233	0x3dba1147	0.09085327
234	0x3e149049	0.14508165
235	0xbe509ac7	-0.20371543
236	0xbd08dbc0	-0.033412695
237	0x3da43161	0.08017231
238	0x3e75cd1a	0.24004021
239	0x3db6ca20	0.08925271
240	0xbdcee4a9	-0.10102207
241	0xbe92b55b	-0.28653988
242	0xbe609220	-0.21930742
243	0xbdac5a4d	-0.08415661
244	0xbda481f6	-0.080326006
245	0xbe9dbc0d	-0.30807534
246	0x3e6ce08c	0.23132533
247	0x3e3d3a20	0.18479204
248	0x3dec3aed	0.11534677
249	0xbe351ae0	-0.17686033
250	0x3e1b726c	0.15180367
251	0x3d6b746e	0.057484083
252	0xbe7d1244	-0.24713999
253	0x3e4a0af4	0.19730741
254	0x3e9ca63f	0.30595586
255	0xbe89c091	-0.2690473
