data/models/trane_model_epoch_50.pth (torch, 423131 bytes, 2 tensors)

entity_embeddings.weight f4 [820, 128]
0.060623996 -0.061919607 0.08669462 0.10006847 0.076770246 -0.120880745 -0.06987128 0.10224656
-0.0895364 0.01963036 0.115062304 0.05820703 -0.081348576 -0.069680735 0.07683933 0.08967625
-0.07130597 -0.094308406 -0.08710969 0.087749265 0.04266196 -0.11777421 -0.088028915 -0.088712156
0.08068839 -0.08998824 -0.14716 -0.10249494 -0.06526985 0.09229692 0.09044727 -0.12852524
-0.09493478 -0.09740971 -0.032908082 0.1159351 0.110588305 -0.0014704894 0.070710324 -0.0053776084
-0.06608609 -0.031502217 -0.13343135 0.062515065 0.086422555 -0.060174685 -0.077774875 0.10137218
-0.021235416 0.07011901 0.1147009 0.12578432 0.08187323 -0.040969186 -0.089329936 -0.08023431
-0.036185153 0.101744786 0.10000492 -0.10566783 0.06733735 -0.085253805 0.06699743 0.096631035
0.06466383 0.116548896 0.07330577 0.014757947 0.020996332 0.014903245 0.13216858 0.09634113
-0.039393034 0.08348539 -0.08986965 -0.1076859 0.06429718 -0.08351544 -0.08142083 -0.06952692
-0.057888545 0.072785206 0.12455373 0.10439744 -0.093743406 0.11858025 -0.12790002 0.09243247
-0.0081367055 0.078705564 0.08686365 0.10629935 -0.08800723 -0.112924285 -0.053620633 -0.07738558
0.110651925 0.14732915 0.09357701 -0.071593694 -0.11259331 0.094131656 0.07180458 0.11430268
0.08249449 0.10238719 0.1035227 -0.0588402 -0.11070053 0.08530987 -0.10508674 -0.1413704
0.07081222 -0.089449376 0.061087396 0.06682079 0.08488084 0.11144122 0.13221468 -0.02108114
0.11311993 0.12668446 0.03280173 0.050656877 -0.06544731 0.08360341 0.066788845 -0.08974423
0.13903658 0.010261237 0.12004916 0.104086064 0.07772425 -0.11608271 -0.055283017 0.06331704
-0.10849193 -0.028865004 0.122477606 0.100316934 -0.08663994 -0.07424764 0.09657024 0.13327083
-0.107013054 -0.08939403 -0.08166992 0.11388566 0.050061338 -0.092990026 -0.06399391 -0.07493564
0.07765602 -0.043475293 -0.12427902 -0.056016404 -0.076943174 0.14568135 0.05114303 -0.13249385
-0.058044616 -0.032863207 -0.022025898 0.08620258 0.077952944 0.041656017 0.108690746 -0.032849975
-0.008688328 -0.07621805 -0.12940389 0.09433589 0.07536743 -0.027794626 -0.08609045 0.050257053
-0.027814295 0.09088415 0.09892298 0.120822124 0.07103912 -0.07286814 -0.08054018 -0.05707724
0.064174294 0.07272996 0.13524054 -0.122668624 0.085544854 -0.14498666 0.058278725 0.07262316
0.09217336 0.09042561 0.09894238 0.08154398 -0.043352306 0.040528864 0.13137572 0.09881122
-0.057395156 0.04472616 -0.067508966 -0.10206842 0.07990724 -0.06093068 -0.12175032 -0.08020332
-0.051431447 0.062462438 0.13200718 0.13963823 -0.029308792 0.04640982 -0.048619766 0.06726921
-0.09092635 0.033930887 0.080405466 0.099052794 -0.097301066 -0.12278297 -0.079578124 -0.056803506
0.114774585 0.0765233 0.08840601 -0.14318548 -0.11609763 0.10989289 0.07044926 0.101901405
0.061479084 0.08600967 0.103178486 -0.034200884 -0.09173805 0.07751434 -0.10264465 -0.08968996
0.1110534 -0.069932304 0.071726374 0.06808393 0.09008459 0.09742857 0.094533585 0.029041037
0.11466955 0.13670486 0.06860619 0.07267432 -0.035615902 0.124021344 0.09843751 -0.08764253
00000000: de50 783d 6a9f 7dbd f38c b13d b3f0 cc3d
00000010: b839 9d3d 5390 f7bd ac18 8fbd a566 d13d
00000020: dc5e b7bd d9cf a03c c9a5 eb3d 7f6a 6e3d
00000030: 159a a6bd c6b4 8ebd f05d 9d3d 2fa8 b73d
00000040: dd08 92bd c424 c1bd 9166 b2bd e3b5 b33d
00000050: 4fbe 2e3d 9b33 f1bd 8148 b4bd b8ae b5bd
00000060: f43f a53d c14b b8bd 1cb1 16be dee8 d1bd
00000070: 33ac 85bd 2b06 bd3d 6b3c b93d 1f9c 03be
00000080: 2a6d c2bd be7e c7bd a0ca 06bd 626f ed3d
00000090: 1f7c e23d 70bd c0ba 93d0 903d a636 b0bb
000000a0: 2558 87bd 7808 01bd 3aa2 08be e607 803d
000000b0: 4ffe b03d bb79 76bd 6f48 9fbd 389c cf3d
000000c0: e5f5 adbc 8e9a 8f3d 4ee8 ea3d 9bcd 003e
000000d0: 27ad a73d 4ecf 27bd 9df2 b6bd e351 a4bd
000000e0: e236 14bd 925f d03d 61cf cc3d 6068 d8bd
000000f0: 2ae8 893d 8c99 aebd f335 893d 7ee6 c53d
00000100: 786e 843d 30b1 ee3d 5621 963d 51cb 713c
00000110: 8000 ac3c bd2c 743c 3357 073e 804e c53d
00000120: 975a 21bd 63fa aa3d 940d b8bd 6d8a dcbd
00000130: 3dae 833d 250a abbd f7bf a6bd 2164 8ebd
00000140: 8a1c 6dbd 6910 953d 0716 ff3d 53ce d53d
00000150: 8bfc bfbd 34da f23d 39f8 02be 3c4d bd3d
00000160: d14f 05bc 6230 a13d 92e5 b13d 79b3 d93d
00000170: 223d b4bd d944 e7bd 4fa1 5bbd 557c 9ebd
00000180: 7a9d e23d 74dd 163e 4ea5 bf3d b79f 92bd
00000190: 5297 e6bd 19c8 c03d 480e 933d 8617 ea3d
000001a0: dff2 a83d 60b0 d13d b603 d43d 6c02 71bd
000001b0: f6b6 e2bd f1b6 ae3d b737 d7bd 67c3 10be
000001c0: ff05 913d 3c31 b7bd c736 7a3d 57d9 883d
000001d0: 01d6 ad3d 4b3b e43d 4963 073e 5bb2 acbc
000001e0: 6cab e73d 92b9 013e 1b5b 063d 967d 4f3d
000001f0: 3d09 86bd 4438 ab3d 97c8 883d d3cb b7bd
00000200: 9b5f 0e3e bf1e 283c 56dc f53d 132b d53d
00000210: e42d 9f3d c6bc edbd 7270 62bd 5dac 813d
00000220: 0431 debd 4d76 ecbc 8ad5 fa3d f772 cd3d
00000230: 4870 b1bd 260f 98bd 9ec6 c53d 2678 083e
00000240: a929 dbbd 3814 b7bd 8f42 a7bd e33c e93d
00000250: 1e0d 4d3d 8e71 bebd 3d0f 83bd db77 99bd
00000260: 1f0a 9f3d 2613 32bd 0086 febd 7571 65bd
00000270: 6294 9dbd 7e2d 153e 5b7b 513d 78ac 07be
00000280: 31c0 6dbd 929b 06bd a86f b4bc fa8a b03d
00000290: cba5 9f3d 809f 2a3d 4199 de3d b28d 06bd
000002a0: 7d59 0ebc 3618 9cbd 7482 04be 2d33 c13d
000002b0: 3d5a 9a3d 8eb1 e3bc 3150 b0bd 57da 4d3d
000002c0: ceda e3bc 7821 ba3d 2298 ca3d 9771 f73d
000002d0: f57c 913d e43b 95bd 40f2 a4bd d3c9 69bd
000002e0: d06d 833d 72f3 943d 7f7c 0a3e b039 fbbd
000002f0: 2432 af3d 6277 14be acb5 6e3d 74bb 943d
00000300: 63c5 bc3d 1031 b93d 4da2 ca3d 8800 a73d
00000310: 3092 31bd 9801 263d 5b87 063e 895d ca3d
00000320: 2f17 6bbd c732 373d 2442 8abd 3f09 d1bd
00000330: 68a6 a33d 7392 79bd 3b58 f9bd a341 a4bd
00000340: c8a9 52bd 9dd8 7f3d e42c 073e 53fd 0e3e
00000350: fe18 f0bc 3918 3e3d 8525 47bd 71c4 893d
00000360: 9837 babd 1dfb 0a3d 9fab a43d 31dc ca3d
00000370: c845 c7bd a375 fbbd dbf9 a2bd cbaa 68bd
00000380: f00e eb3d 3fb8 9c3d 360e b53d 379f 12be
00000390: 98c4 edbd 860f e13d b447 903d afb1 d03d
000003a0: 7ed1 7b3d d625 b03d 3e4f d33d 3a16 0cbd
000003b0: 29e1 bbbd d7bf 9e3d 5c37 d2bd 5faf b7bd
000003c0: f76f e33d ab38 8fbd 47e5 923d 966f 8b3d
000003d0: 457e b83d a188 c73d d39a c13d 78e7 ed3c
000003e0: ded7 ea3d 5cfc 0b3e 6781 8c3d 46d6 943d
000003f0: fbe1 11bd e7fe fd3d 9b99 c93d ed7d b3bd

relation_embeddings.weight f4 [4, 128]
0.1332708 0.11017155 0.1489585 0.15089314 0.1900107 -0.12221133 0.13603984 0.10728389
0.053456645 0.15287727 -0.010622414 -0.13701347 0.15973225 -0.18035881 0.18754782 -0.095146745
0.15996346 0.16647309 -0.18501465 -0.16452336 0.12344796 0.08736131 -0.13806616 0.0824914
-0.18808904 0.14268596 -0.084246576 -0.17615135 0.16750887 -0.1591704 0.11268147 -0.009495674
-0.14669187 -0.15934126 -0.17320643 -0.19331293 0.077256866 0.075208284 0.17982815 -0.15467735
-0.03893774 0.18804546 -0.14438647 -0.13490659 -0.17278786 0.15730584 0.13139448 -0.18796691
0.18166052 0.18185858 0.13775404 -0.046083428 -0.184283 -0.17951645 0.16131942 -0.16472661
0.19321503 -0.17177019 -0.012718739 -0.13859445 -0.0813404 0.11267938 -0.13691038 0.16787924
-0.08416964 0.16442779 -0.16801548 0.15763748 0.015948616 -0.1964543 0.12629144 0.13839619
0.09759323 -0.16209638 0.19286951 0.12486486 -0.18525283 0.18463843 -0.09254146 0.20082313
-0.13089682 -0.044983696 0.01811066 -0.04044596 0.17699477 0.05364031 0.0074640475 -0.179942
0.0004127975 -0.13727759 -0.15092951 0.09139727 -0.13163173 0.0076767635 -0.19241269 0.1697302
-0.076012835 0.0007617684 -0.13693573 -0.15062001 -0.15400675 -0.16651726 -0.18475765 -0.10089848
-0.18977179 0.17281668 0.18895884 0.18658334 -0.048081737 0.18509693 -0.1944948 -0.17913131
0.044185206 0.17791253 -0.09596591 0.18829249 -0.09480033 0.056815267 0.08463882 0.1474724
-0.04595651 -0.018792909 -0.039197795 -0.1902764 -0.189506 -0.11836551 -0.17137156 -0.08708274
-0.01947421 -0.12143777 0.038968388 -0.02299465 0.21186242 -0.1402641 -0.048381604 -0.10514025
-0.054129373 0.2127552 -0.17317598 0.046507344 0.020146217 -0.10879728 0.15435727 -0.047311205
0.17122315 0.20420572 -0.17660774 0.048695788 0.17911129 -0.06513509 0.062466785 -0.1321805
-0.2147735 -0.057969797 0.03891518 -0.11411188 0.23632121 0.020097028 0.21087366 -0.0010824718
0.0387875 -0.21995018 -0.21887608 -0.08717561 -0.12657419 -0.109170295 0.06452689 -0.21670684
0.043945897 0.20979589 0.0657729 0.09353567 -0.045635365 0.075453304 -0.08256706 -0.048232283
0.15860601 0.11100543 0.21514471 -0.14717637 -0.0658379 -0.2262119 0.13347189 -0.044796985
0.113649085 -0.1264862 -0.18127109 0.04253458 0.07623489 0.0070194323 0.06690897 0.17996126
0.1371219 0.0854235 -0.087331586 -0.049322285 0.17822137 -0.23216468 -0.08895578 -0.084569454
-0.1058137 0.030807123 0.071761355 -0.013848275 -0.032799795 0.21407476 -0.11870772 0.15278594
0.0025531794 0.12403094 -0.1277076 0.06395498 0.07453984 0.17269307 0.08599868 -0.16900124
-0.17532544 0.0720487 0.010527771 -0.104399934 0.102548674 0.037584417 -0.19177903 0.18978035
-0.07677509 0.14961825 -0.039743215 0.038961176 0.020215847 0.033569805 -0.08851773 -0.21447797
-0.04751921 0.17069343 0.15371823 0.18696155 0.1430359 0.15953927 -0.18839064 -0.15070379
-0.06631774 0.10968221 -0.012964926 0.19806623 0.08391734 -0.10082795 0.103098035 -0.0882922
-0.18446603 -0.16482615 0.124027945 -0.10064206 -0.18803324 -0.12480015 -0.09260763 -0.09096483
00000000: 2478 083e 9fa1 e13d 9488 183e bb83 1a3e
00000010: 2a92 423e ef49 fabd 074e 0b3e a8b7 db3d
00000020: 5bf5 5a3d dc8b 1c3e a209 2ebc 424d 0cbe
00000030: da90 233e fbaf 38be 890c 403e 4cdc c2bd
00000040: 76cd 233e ec77 2a3e 7b74 3dbe d078 28be
00000050: 49d2 fc3d 7dea b23d 3761 0dbe 40f1 a83d
00000060: 6a9a 40be 451c 123e 7889 acbd 0561 34be
00000070: 7287 2b3e 91fd 22be 8bc5 e63d be93 1bbc
00000080: 6536 16be 5b2a 23be 075d 31be d3f3 45be
00000090: d938 9e3d cd06 9a3d df24 383e bd63 1ebe
000000a0: 2e7d 1fbd fd8e 403e 0cda 13be f424 0abe
000000b0: 4def 30be c814 213e 468c 063e 667a 40be
000000c0: 3705 3a3e 2339 3a3e 650f 0d3e fac1 3cbd
000000d0: afb4 3cbe 29d3 37be eb30 253e 18ae 28be
000000e0: 29da 453e 86e4 2fbe 4262 50bc b4eb 0dbe
000000f0: cc95 a6bd 72c4 e63d 3c32 0cbe 89e8 2b3e
00000100: 2261 acbd c25f 283e 400c 2cbe b86b 213e
00000110: aca6 823c 512b 49be 8b52 013e bbb7 0d3e
00000120: f6de c73d 98fc 25be 967f 453e 26b9 ff3d
00000130: ebb2 3dbe db11 3d3e 6186 bdbd 94a4 4d3e
00000140: d109 06be d340 38bd cf5c 943c aaaa 25bd
00000150: 1e3e 353e f1b5 5b3d f894 f43b b742 38be
00000160: be6c d839 7f92 0cbe 448d 1abe 7e2e bb3d
00000170: 78ca 06be 5c8d fb3b d507 45be c1cd 2d3e
00000180: 9eac 9bbd 69b1 473a e138 0cbe 223c 1abe
00000190: f2b3 1dbe 8083 2abe 1c31 3dbe dda3 cebd
000001a0: 8953 42be dbf6 303e 6d7e 413e b40f 3f3e
000001b0: 5bf1 44bd 0d8a 3d3e a529 47be 336e 37be
000001c0: 8cfb 343d b42e 363e c689 c4bd bfcf 403e
000001d0: ad26 c2bd 20b7 683d 1e57 ad3d 0103 173e
000001e0: e53c 3cbd 96f3 99bc de8d 20bd d1d7 42be
000001f0: dc0d 42be 9e69 f2bd 077c 2fbe 7058 b2bd
00000200: 6188 9fbc 5eb4 f8bd 519d 1f3d 475f bcbc
00000210: 76f2 583e 64a1 0fbe ca2b 46bd c553 d7bd
00000220: c3b6 5dbd 80dc 593e 0b55 31be 7c7e 3e3d
00000230: ae09 a53c 1cd1 debd d50f 1e3e 65c9 41bd
00000240: 1f55 2f3e 4e1b 513e a9d8 34be 3c75 473d
00000250: f368 373e 8c65 85bd 2cdd 7f3d 535a 07be
00000260: 96ed 5bbe bd71 6dbd 8665 1f3d 7db3 e9bd
00000270: 30fe 713e 86a2 a43c 44ef 573e bae1 8dba
00000280: a4df 1e3d 9f3a 61be 0d21 60be 2089 b2bd
00000290: aa9c 01be ad94 dfbd ad26 843d 66e8 5dbe
000002a0: 9d00 343d bcd4 563e f1b3 863d a18f bf3d
000002b0: 26ec 3abd 4387 9a3d eb18 a9bd 378f 45bd
000002c0: 9d69 223e d156 e33d e54e 5c3e 67b5 16be
000002d0: 05d6 86bd 18a4 67be dbac 083e 0b7d 37bd
000002e0: dac0 e83d 9985 01be 219f 39be bd38 2e3d
000002f0: 0a21 9c3d 4403 e63b 9207 893d c447 383e
00000300: af69 0c3e 84f2 ae3d e7da b2bd 2a06 4abd
00000310: aa7f 363e 94bc 6dbe 732e b6bd c032 adbd
00000320: dab4 d8bd 385f fc3c 9ef7 923d e0e3 62bc
00000330: 1459 06bd 6a36 5b3e 081d f3bd eb73 1c3e
00000340: 3e53 273b ef03 fe3d c8c5 02be d4fa 823d
00000350: 58a8 983d 74d6 303e 1320 b03d a90e 2dbe
00000360: 8388 33be 458e 933d ac7c 2c3c a2cf d5bd
00000370: 0a05 d23d 1ef2 193d b961 44be c855 423e
00000380: 423c 9dbd 8735 193e c8c9 22bd c195 1f3d
00000390: b49b a53c 7e80 093d c948 b5bd 1da0 5bbe
000003a0: 81a3 42bd 42ca 2e3e 5068 1d3e d972 3f3e
000003b0: 0178 123e 435e 233e 7ae9 40be 1852 1abe
000003c0: 98d1 87bd 11a1 e03d d76a 54bc e0d1 4a3e
000003d0: dbdc ab3d e27e cebd 1025 d33d 8ad2 b4bd
000003e0: aae4 3cbe 30c8 28be 5d02 fe3d 6d1d cebd
000003f0: c98b 40be 3997 ffbd 12a9 bdbd c54b babd
