data/models/trane_model_epoch_30.pth (torch, 423131 bytes, 2 tensors)

entity_embeddings.weight f4 [820, 128]
00000000: 7c01 aebc 4603 99bd e5b2 d73d 45d2 c23d
00000010: 9aed 9cbd 0140 bf3d c007 b5bd 8275 07be
00000020: 2483 b63d 5c3a a0bd ab62 f43d 129f a53c
00000030: 9137 ca3d 9047 22be 92ad 82bd f526 14be
00000040: 25bf 83bd 9682 91bc 9bf3 8c3d 89a0 973d
00000050: ca61 7f3d 337d a23d df3c 00be bf6b 8abd
00000060: 7ce6 2c3d 10da 833d 4ce6 d1bd d845 9f3d
00000070: 846b 9fbd 7d77 ca3d fbcb 3d3d 621d a53d
00000080: 8e71 9abd 86ab f83d 8abd ef3d 9908 8abd
00000090: 86ec a33c a377 c23c e5f3 33bd e025 233d
000000a0: f40c 163d d2e6 063e e526 c0bd af6a 9a3d
000000b0: a43d a7bd 8330 df3d d54b 13be 2661 a03c
000000c0: 8aec c1bd a6cc 26be 554c 6a3d 2fa5 d53d
000000d0: 5e25 a73d ce74 c03d 41f0 c6bd 2217 efbd
000000e0: bdab 783d 0c55 8f3d 7fbf 183c 083e ddbd
000000f0: 912a 99bd 60cc cdbd dfb2 31bd 2a76 d9bd
00000100: 6238 aebd abb5 85bd 9fba ae3d 7c41 08be
00000110: 9249 97bd 4944 d9bd a99f a8bd 341a 56bd
00000120: ad7c bdbd 4a62 cb3d 8bf7 d53c 4dea e7bc
00000130: eda6 d6bd 7334 923d 5fda 99bd a007 ca3d
00000140: 7990 00be 1551 67bd d2c1 31bd c070 e3bd
00000150: f3a3 3c3d aae4 aa3d 78eb ffbd b327 043d
00000160: 4873 fcbc 2559 dbbc 32ef 963d ea94 c23d
00000170: 91fc ccbd d74f 8bbd 7140 d2bd 2000 913d
00000180: 8ddf e8bd 84c3 db3c cc4b 99bd faf3 b9bd
00000190: fb99 643d f087 1c3e 5d41 cc3d 599f e0bd
000001a0: 1d22 e43d 3c9a 10be 454c c8bd a8a3 af3d
000001b0: fbc1 b63d ed15 c5bd e43d c0bd 230f f2bd
000001c0: eedb 9e3d c8a4 afbd 13c3 eebc 26ca 1a3e
000001d0: d9dc 413d f387 b33d a56b 1c3d af93 0cbe
000001e0: f40c c4bd c716 183c 6b03 cabd afa7 ccbd
000001f0: 295c b3bd 7462 b8bd c019 8cbc 7e4a 62bd
00000200: 85f2 88bc 929b 1bbd dae6 f93d a22f 6c3d
00000210: 1c4f 02be ce16 b03d f6a2 d2bd af72 babd
00000220: cba6 a73d 0855 c5bd 0437 ba3d 36c9 1c3c
00000230: 84c1 793d ae54 5cbd cb36 d6bd 5ecf 15be
00000240: 4bf0 d9bd 762c 7cbd bf48 8c3d e6e3 a33d
00000250: b6c1 353d f570 863d 4577 c9bd e888 73bd
00000260: 49a7 153b 23c1 043e f4be b4bd 6973 5a3d
00000270: 14c1 c2bd 7f55 123e 86dc 793d 7cba 923d
00000280: bb05 bdbd 7a7f e33d c2f0 903d 8b4d 643d
00000290: f07a 2b3d fdcf 8a3d 2060 0fbd f87f e93d
000002a0: 2d15 173d 1e3c f93d c199 f9bd b21f 1a3d
000002b0: 6fbc b2bd 5b07 bd3d 913e dcbd 3d7e 9c3c
000002c0: 1916 ccbd 717e f1bd 04ae c63d 58a1 af3d
000002d0: 1b6d c73d 1de1 ab3d a797 a0bc e889 dcbd
000002e0: 4850 813d d3bd d63d 8168 90bd 512c 69bd
000002f0: 91a1 babd 1c3f 87bd 0516 08bd 2823 92bd
00000300: a8c0 c4bd 3687 c1bd 78f8 dc3d 2290 f4bd
00000310: 9eb7 e2bd 8ad0 603c ab9c 55bd ad2d 09bd
00000320: 460f afbd 52bb e23d a1fe a73d 8841 d3bd
00000330: 12cc c2bd b978 f53d 327f debd 2b17 f63d
00000340: ccc2 9cbd b650 eabd 93db b8bd b674 00be
00000350: af48 ca3d 45d7 ae3c 2557 abbd 5ebb a03d
00000360: 60ba d9bc 6b6d 2cbd 9323 d03d cdd0 eb3d
00000370: af0b f2bd 9377 e1bd 3ab4 e9bd 6c54 ac3c
00000380: 31a6 08be fcb8 a2bc 838c b8bd 0756 99bd
00000390: ce59 bf3d 44a9 df3d 15ab 893d 2569 96bd
000003a0: b4c5 013e d981 11be a8f9 cdbd 81ce bf3d
000003b0: 1006 8a3d 623c 8ebd bcf7 d9bd 7726 9cbd
000003c0: 517c 9c3d e76d a1bd 0528 70bd 6906 c73d
000003d0: 8575 c43c f603 ca3d 9500 863b e494 ffbd
000003e0: 246e e6bd 7622 21bc 9040 f3bd 13f9 fabd
000003f0: deb4 96bd a3f6 e9bd a1b6 52bc 7b23 b0bd
-0.021240942 -0.074713275 0.10532168 0.09512762 -0.076625064 0.0933838 -0.08839369 -0.1322842
0.08911732 -0.07823631 0.11932882 0.020217452 0.0987388 -0.15847611 -0.06380762 -0.14467986
-0.06432942 -0.017762464 0.068824016 0.074036665 0.06234912 0.07934036 -0.1252322 -0.06758832
0.042211995 0.064380765 -0.10249004 0.077769935 -0.07784179 0.09886072 0.04633711 0.08062245
-0.0754119 0.121420905 0.117060736 -0.06739921 0.020010244 0.023738688 -0.043933768 0.039831042
0.036633447 0.13173988 -0.093824185 0.075398795 -0.08166054 0.10897925 -0.14384396 0.019577574
-0.09468944 -0.16289005 0.057201702 0.10431897 0.08161424 0.09397279 -0.097137935 -0.11674334
0.060710657 0.06998643 0.009323 -0.10802847 -0.07478822 -0.10048747 -0.043383475 -0.10618241
-0.08506848 -0.06528791 0.08531689 -0.1330623 -0.07387079 -0.106087275 -0.08233578 -0.052271083
-0.09252296 0.099308565 0.026119014 -0.028309966 -0.10481057 0.0713891 -0.07512354 0.098647356
-0.12555112 -0.05647381 -0.043397732 -0.1110549 0.04605479 0.083443955 -0.12496084 0.032264423
-0.03081669 -0.026775906 0.07369842 0.09501059 -0.10009111 -0.068023376 -0.102661975 0.07080102
-0.11370764 0.026826628 -0.0748516 -0.09079738 0.05581091 0.15286231 0.099734046 -0.10967893
0.11139319 -0.14121336 -0.09780172 0.08576137 0.089237176 -0.09623323 -0.09386805 -0.11819293
0.07756792 -0.085763514 -0.029145753 0.15116176 0.047329757 0.08766165 0.038188595 -0.13728212
-0.09572783 0.009282774 -0.09863933 -0.099929206 -0.087578125 -0.090031534 -0.017102122 -0.055246823
-0.016717205 -0.03799016 0.122022346 0.057662614 -0.1272549 0.085981 -0.102849886 -0.091039054
0.0818611 -0.09635359 0.09092525 0.009569457 0.060975567 -0.053791694 -0.1045967 -0.14629886
-0.10641535 -0.06156584 0.06849813 0.080024526 0.04437419 0.065645136 -0.09837202 -0.059456736
0.0022835305 0.12964301 -0.08825484 0.05333272 -0.09509483 0.14290427 0.061001323 0.07164475
-0.092296086 0.111082986 0.07077171 0.055738013 0.04186529 0.06777952 -0.03500378 0.11401361
0.03688543 0.121696696 -0.12187529 0.037627883 -0.08727347 0.092299186 -0.10754121 0.019103164
-0.09965152 -0.11791695 0.097011596 0.08575696 0.09737607 0.08392546 -0.019603563 -0.10768491
0.063141406 0.10485425 -0.070511825 -0.05692703 -0.091128476 -0.06603834 -0.033224124 -0.07135612
-0.09607059 -0.094496176 0.10789579 -0.11941554 -0.110701784 0.013721595 -0.052151363 -0.033490825
-0.08547835 0.11070885 0.082028635 -0.103152335 -0.095115796 0.11985917 -0.10864104 0.12016138
-0.07654342 -0.11441176 -0.090262555 -0.12544522 0.098771445 0.021342883 -0.08366231 0.078482375
-0.026578128 -0.042096537 0.10163035 0.11514435 -0.11818635 -0.11009135 -0.114113286 0.02103635
-0.13344647 -0.019863598 -0.090111755 -0.074871115 0.09343301 0.10920957 0.067220844 -0.073442735
0.12673074 -0.14209689 -0.10057384 0.09365559 0.067394376 -0.06945111 -0.10642955 -0.07624524
0.07640899 -0.0788229 -0.058631916 0.097180195 0.023981819 0.09864037 0.004089425 -0.124795705
-0.112514764 -0.009834876 -0.11877549 -0.122545384 -0.073587164 -0.11423995 -0.012860925 -0.08600517

relation_embeddings.weight f4 [4, 128]
00000000: cd5e 57be d177 3e3e 0311 c23d 1ba4 3c3e
00000010: 9579 4e3e 08f7 64be edde 0f3d b363 1cbe
00000020: 8c56 503e 0043 e23d 271f 2dbe d78d 3d3e
00000030: ebbe 3abe d3c6 953d 3d48 32be e912 79bc
00000040: 9c34 29be 6b80 4f3d 81de 45be c96b 19be
00000050: 3dc9 29be 2acc 123e 6b14 9c3d 4835 173e
00000060: d327 403d d2d5 bcbd 1070 353e f1b1 513e
00000070: 8cc6 35be 529e 063e a820 1fbe 42a0 a33c
00000080: f2a7 55bd 60e4 0cbe ec1a 163e 2c9d 3e3e
00000090: 9fc5 3f3d 8c14 103e 459e 16be 5f28 dbbd
000000a0: 5548 29be fd7d e03d 0447 23be 49b2 3f3e
000000b0: 411d 373e 1fa0 4cbe aa55 b0bd f32d 473e
000000c0: 33c7 57be fcee 6fbd ffb1 fc3d 9649 9f3d
000000d0: 48fe 66bd 907e 50be d67c 4abe 9353 913c
000000e0: 62b0 4cbe 0ca3 4f3e 18c8 1f3e 0654 27be
000000f0: f62a 21be 852f 353e d3d0 20be 8d3e 5f3e
00000100: 38b2 3ebe 603e 243e 79fa 37be e5f6 edbd
00000110: 2eda 39be 7035 dabc 81ac 683e 6479 043e
00000120: b756 603e 164c 53be 5cc9 1e3e ac76 0ebe
00000130: 1c95 223e 9970 353e fdd0 5fbe e2a7 5cbe
00000140: 0bd5 d5bd ce68 d5bc 9b72 d7bd 9c78 7a3d
00000150: 307e 293e 0273 57be e36f 38be 95f6 46be
00000160: 59f7 2b3e 8394 493e 98d8 033e 3f13 48be
00000170: 332b 533e 13b6 043e 6737 1e3e 6045 57be
00000180: f837 073e c450 2f3e a55d b7bd b719 3b3e
00000190: 9b5b 50be 2fad fa3d 6f1a 313e c43b 39be
000001a0: a078 143e 844c 17be 105c 0cbe 84ab 4ebe
000001b0: 369a 58be a968 53be e850 3e3e e4f1 463e
000001c0: c804 2f3e ca15 27be e20f d6bd 6f59 3f3e
000001d0: afc8 42be 78eb 2abe 9b07 433e 458d f63d
000001e0: e110 3a3e 6983 c33d 55bf 463e de26 25be
000001f0: 8d21 41be e9c3 6d3e d141 2d3e 4b3d 3abe
00000200: aeb3 c53c 1ed0 c2bd ebcf 943d eade cc3d
00000210: 0eb7 ea3d 7883 16bc a531 a63d b85e 82bc
00000220: dab9 dfbc 4af3 9cbc 2a07 32be a1ca 693c
00000230: a25a a23d 57c2 fa3c ccd7 dcbd 0588 133d
00000240: bc07 6abe a613 34be 4934 17be f33e 7a3d
00000250: 6ed9 4fbe f143 013e cda2 383e 8f6a d4bc
00000260: 1fb1 4d3e 8cdd 1d3e 2a55 e7bd 2b59 293e
00000270: 6201 4abe 93ea 3d3e d966 ce3d 0b88 74bd
00000280: a761 4bbe fc3a 5ebe 8a45 cfbd 5e6a ec3d
00000290: 8fe0 15be 7430 f2bc 2732 36be 2099 da3d
000002a0: 780b 5fbe c7d7 e6bd ae5d 08bd a93a c1bd
000002b0: d9dd 563e 3060 16be 1c49 0d3e d782 3e3e
000002c0: 665f 86bd e367 76bb e84f ee3d d853 063c
000002d0: 54e2 7f3d 85bd f1bd 0c2a 7a3d c707 ddbd
000002e0: 260a 57be 1629 8f3d 9c56 663e 3516 3cbe
000002f0: 3f1e 83bd 2678 073e 8180 59be aa72 f53d
00000300: 5f34 26bd 9198 3abd a66e b93b 45d9 043e
00000310: 0a4a 2abd b4b9 f63d 36f5 193e 7096 6a3e
00000320: 7d7b 403e 30ee 49be 4d17 633e 10a1 fdbd
00000330: ae2f 43bd 4265 273c 2aa6 21be e13f 92bd
00000340: b289 1c3e 4d65 4ebe 15ed 30be 50dc 28be
00000350: bad4 5e3e 5c4a dcbd 6b0f 1b3d 7f80 9fbd
00000360: 8ef3 653e d247 273e e5a8 183e 78d2 7d3d
00000370: 78b5 3bbc 8582 1bbe 209c e4bc 4559 7cbc
00000380: f0b5 b83d 5c05 093e ea66 d0bd 0bf7 3f3e
00000390: 84fd 6fbd 518a 05bc 6745 8dbd 93f8 06be
000003a0: 24bf 903c 8548 7d3d 7e04 e03d 1bbb 3ebe
000003b0: c0ac f2bc 144d 2d3d de7c 463e 9195 ad3d
000003c0: a8b8 b3bd 6b95 4bbe 5087 53be 9fe3 98bd
000003d0: e9c8 99bd cb63 62be ae0d 2c3e c6dc 0d3e
000003e0: 6572 d93d 1473 2bbe 79fa 193e 7d2c 5c3d
000003f0: c02c 4ebe 1f07 1f3e 5a76 513e 4e97 46be
-0.21032257 0.18600394 0.09475901 0.18421976 0.20163567 -0.2235986 0.035124708 -0.15272407
0.20345515 0.110479355 -0.16906415 0.18511139 -0.18236892 0.07313313 -0.17410369 -0.015202262
-0.16523975 0.05065958 -0.1932316 -0.14982523 -0.16580673 0.14335695 0.07621082 0.14766419
0.04691298 -0.092204705 0.1771853 0.20478036 -0.17751521 0.13146332 -0.15539801 0.019973878
-0.05216212 -0.13758993 0.14658707 0.18614644 0.046819326 0.14070338 -0.14708813 -0.107010596
-0.16531499 0.1096153 -0.15945059 0.18720354 0.17882253 -0.19982956 -0.08610089 0.19451122
-0.21072082 -0.058577523 0.123386376 0.07777707 -0.056394845 -0.2036078 -0.19774184 0.017740047
-0.1998916 0.20277041 0.15603673 -0.16340646 -0.15739045 0.17693909 -0.1570466 0.21801205
-0.18622673 0.16039419 -0.17966641 -0.11619357 -0.18149635 -0.02663681 0.22722055 0.12936932
0.21908079 -0.20634493 0.155065 -0.13912457 0.15877193 0.17718734 -0.21857066 -0.21548417
-0.10441025 -0.026050951 -0.10519906 0.06115018 0.16552043 -0.21039966 -0.18011431 -0.19430001
0.16793574 0.19685559 0.12875593 -0.19538592 0.20621948 0.12960081 0.15450822 -0.21022558
0.13204944 0.17120653 -0.08953408 0.18271528 -0.20347445 0.122400634 0.1729524 -0.18089205
0.1449914 -0.14775282 -0.13706994 -0.20182616 -0.21152577 -0.20645393 0.18585551 0.19428211
0.17091668 -0.16316906 -0.10452248 0.1868646 -0.19021867 -0.16691387 0.1904587 0.12038664
0.18170501 0.09546549 0.19408925 -0.16128108 -0.18860455 0.23219265 0.16919638 -0.18187444
0.02413353 -0.095123515 0.0726622 0.10003455 0.11460696 -0.009186618 0.08114938 -0.015914306
-0.0273103 -0.019158978 -0.17385545 0.014269502 0.07927443 0.030610247 -0.107833475 0.03601839
-0.22854513 -0.1758562 -0.14766039 0.06109519 -0.20297787 0.12623574 0.18030854 -0.025929717
0.20087098 0.15416545 -0.11295541 0.16537921 -0.1972709 0.18546514 0.100782104 -0.059700053
-0.1986147 -0.21702188 -0.101206854 0.115437254 -0.14636444 -0.02956412 -0.17792569 0.106737375
-0.21781719 -0.11271625 -0.033292465 -0.09435017 0.20983066 -0.1468513 0.1379742 0.18604599
-0.065611646 -0.0037598542 0.11636335 0.008198701 0.062471703 -0.11803726 0.061075255 -0.10792499
-0.20999965 0.069902584 0.22493976 -0.18367846 -0.06402253 0.13229427 -0.21240427 0.11984761
-0.04057729 -0.045555655 0.0056589423 0.12973507 -0.041574515 0.12047139 0.15034947 0.2290895
0.18797107 -0.19719768 0.22176857 -0.12384236 -0.047652893 0.010217013 -0.15786043 -0.0714109
0.15286902 -0.2015583 -0.1727794 -0.16490293 0.21760836 -0.107563704 0.0378565 -0.077881806
0.2245619 0.16335991 0.14908178 0.061968297 -0.01145684 -0.15186508 -0.027906477 -0.015402143
0.09019077 0.1338095 -0.10175879 0.18746583 -0.05859138 -0.008150653 -0.06898003 -0.13180761
0.017669268 0.06183674 0.10938357 -0.18626063 -0.02962339 0.042309836 0.1938357 0.08475793
-0.08775455 -0.19881217 -0.20657086 -0.0746529 -0.07509024 -0.2210838 0.16802093 0.1385375
0.10617522 -0.16743118 0.15036954 0.053753365 -0.20134258 0.1553006 0.20455304 -0.19393656
