data/models/trane_model_epoch_80.pth (torch, 423131 bytes, 2 tensors)

entity_embeddings.weight f4 [820, 128]
00000000: 2b3c 093e 9690 d8bd 156a c23d 11bb 4bbd
00000010: c2ce 98bd c4d8 153d cffc aebd d0cb 85bd
00000020: 7cea f83d 0cc6 613d ad80 0abc b37d abbd
00000030: 2339 3c3d 1642 983d c87e bebd c0a7 be3d
00000040: 7f73 843d 6a1d c5bc 47e8 973d 7def b3ba
00000050: 14fd cf3d 356a d6bd df3b dd3d c970 fb3d
00000060: dc7e 8f3d b59c f33d ce52 c03d e140 dbbd
00000070: 89a1 d33d 8e53 abbd b200 dc3d 0cfd 8d3d
00000080: 018b 10be 09a8 85bd f211 f83d ae97 093e
00000090: 9363 34bd 4433 86bd 0ddb 4cbd 66b3 6dbd
000000a0: 9a74 da3d fcc2 cebd 1d4d bf3d 4233 b73d
000000b0: ea85 d7bd 653b aabd e22f e13d dd47 b0bd
000000c0: 4f4e f3bb 2146 a33d bcb6 253d 29af 513d
000000d0: 384b ea3c b962 3b3d 6653 e13d 77bb cabd
000000e0: a08b 4ebd e977 ac3d f1bd f9bd 0ec3 e93d
000000f0: 870e a1bd 0578 3e3d 9f35 d6bd 3295 bfbd
00000100: f2d5 9b3d 91ab 053e 47ee 7a3d c644 c4bd
00000110: 50b5 8cbd 2948 99bd 3f78 883d 236d e33d
00000120: 0074 243b c7f3 c0bd 43e4 aabd 6560 dc3d
00000130: 6c92 92bd 8aee e93d 7f78 24bd dbd3 fbbd
00000140: 7978 153d 9f10 d8bd 979a 97bd 634b 8e3d
00000150: 45cd bcbd f898 dcbd 7db2 75bd 9f84 293c
00000160: 6b18 183e f6f1 cd3d d77d 3cbd f037 893d
00000170: b76f 84bd 3633 36ba ca34 acbd b0d4 7b3c
00000180: de93 a53d d292 e23d 8f99 a13d 4b91 8bbd
00000190: 214b 93bd 1172 e2bd 8a0f 99bd ca36 053e
000001a0: fc11 f2bd 5305 3d3d 809e 74bd 0150 c4bd
000001b0: 6671 b1bd 439e d3bd 4a48 90bd dd07 95bd
000001c0: 2643 ce3d fea6 813d 9896 a53d 294e 643d
000001d0: 8fe0 cf3d 71cb b4bd 25b3 f93d aeaf 183e
000001e0: fc1b 07be 6c30 a8bd c2da cd3d eaf8 c1bd
000001f0: 396f d0bd ee80 dbbd 04a5 d33d 3e16 ccbd
00000200: c785 003e 0b3a a7bd de42 a03d 5ce1 31bd
00000210: 6168 9dbd db43 ab3d bbf2 d4bd 25c7 93bd
00000220: 6404 0a3e db02 993d 777f 053d c31e b7bd
00000230: 4225 183c 5516 a93d c568 dcbd 814c ac3d
00000240: 7633 9e3d 1d56 97bd 2845 bb3d d0e9 7ebd
00000250: 0b57 003e 9566 b5bd d453 053e df81 ef3d
00000260: 6283 663d 3881 043e b35d d43d 59a9 d2bd
00000270: 216a 0e3e 823a 6dbd b12d c23d 3109 f63d
00000280: 5b3b e2bd 0596 c9bd bf97 ac3d 7874 e73d
00000290: 1030 1bbd ef53 1ebd ce9a d1bd d19c fabd
000002a0: 3301 9f3d 05c7 0bbe 4b81 df3d 9206 b63d
000002b0: 7c58 a3bd 22e2 9fbd cf08 e23d b1c9 04be
000002c0: 303b 8bbd 3782 d03d 68bf 863d 47e9 983d
000002d0: 7a9d 913d 4e59 343d 6974 963d bf86 bcbd
000002e0: f53d 80bd c79b cd3d 25f3 16be c08b df3d
000002f0: 34ee a0bd 0f5e 103d f377 6fbd a2ce d0bd
00000300: 0c6e 933d fde3 be3d a84f a73d a12c 00be
00000310: 6440 96bd 14cc 63bd 4dc0 953d b57c ff3d
00000320: 8003 08bd aff6 c9bd 4082 4fbd e39a cb3d
00000330: 32ff 78bd 9d32 a83d b245 88bd aa65 84bd
00000340: 33c2 26bd 24d5 debd dc34 aebd 81b6 793d
00000350: 41cf 91bd 1296 02be 768c 0e3d 7304 dd3d
00000360: 40ee 9f3d ca9f d83d c876 36bd 5805 113d
00000370: 7fe5 aebd eca2 313d 2987 57bd cb83 7c3d
00000380: 7d54 303d 5b8b 7e3d 60b8 d33d c12c bcbd
00000390: c774 42bd 60ae cebd 96f2 7fbd 9277 ef3d
000003a0: 5fe1 e4bd a8fc 4b3d 0f4f 94bd 4500 05be
000003b0: ef35 67bd c92a c7bd 9dec dfbd 02b1 acbd
000003c0: 664c eb3d f99d b23d 8bb0 b23d 84ac 243d
000003d0: daf0 b13d f389 2ebd 1a57 dc3d 1c25 ce3d
000003e0: 3259 f8bd fc56 84bd 3b4a 533d 7b19 dabd
000003f0: 8bfb 49bd 7646 e8bd 2a98 b13d 7bd6 63bd
0.13401859 -0.105744526 0.0949289 -0.049738947 -0.07461311 0.036583677 -0.08544313 -0.06533015
0.12154099 0.055120513 -0.00845353 -0.083735846 0.045952927 0.0743448 -0.09301525 0.093093395
0.06467342 -0.024061877 0.0741735 -0.0013727989 0.10155693 -0.10469476 0.10802435 0.122773714
0.070066184 0.11895124 0.09390794 -0.10705734 0.10333545 -0.08365546 0.1074232 0.069330305
-0.14115526 -0.06526191 0.12112798 0.13436767 -0.044040274 -0.06552747 -0.05001359 -0.058032416
0.10666771 -0.10095784 0.0934088 0.089453235 -0.10523589 -0.0831211 0.10995461 -0.08607457
-0.0074251066 0.079723604 0.040457472 0.051192436 0.02860032 0.045748446 0.11002235 -0.09899037
-0.050426126 0.084213085 -0.121944316 0.11414157 -0.07864099 0.04650118 -0.10459446 -0.093546286
0.07609166 0.13053729 0.061262395 -0.0958343 -0.0687052 -0.074844666 0.0666356 0.111048006
0.0025093555 -0.09421497 -0.08344319 0.10760573 -0.07156834 0.11422451 -0.040153977 -0.122962676
0.036491845 -0.10550045 -0.074025325 0.069479726 -0.092188396 -0.10771364 -0.059984673 0.010346561
0.14853065 0.10055916 -0.046018448 0.06700122 -0.064666204 -0.000695038 -0.08408506 0.015370533
0.08084844 0.1106316 0.07890617 -0.06814822 -0.07192064 -0.11056913 -0.07473667 0.13009182
-0.118198365 0.046147656 -0.05972147 -0.09585572 -0.08664207 -0.103329204 -0.07045038 -0.072768904
0.10071401 0.06330679 0.08085364 0.0557386 0.10150253 -0.08827866 0.12192372 0.14910766
-0.13194269 -0.08212361 0.1005149 -0.09471305 -0.10177464 -0.10717951 0.103342086 -0.0996518
0.12551032 -0.08165368 0.07825254 -0.04342781 -0.07685924 0.08362552 -0.1039786 -0.07215718
0.13478237 0.07471248 0.032592263 -0.08941414 0.009286227 0.082562126 -0.10762171 0.084130295
0.07724659 -0.07389472 0.0914405 -0.0622347 0.12533204 -0.088574566 0.13020259 0.11694693
0.05627764 0.12939918 0.10369434 -0.10286207 0.13907672 -0.057917126 0.09481371 0.12013472
-0.110464774 -0.09843067 0.08427381 0.113015115 -0.037887633 -0.038654264 -0.10234605 -0.122369416
0.077639006 -0.13650139 0.109133326 0.08887972 -0.079758614 -0.07806803 0.11036836 -0.12967564
-0.067983985 0.101810865 0.065794766 0.07466369 0.071101144 0.04403048 0.07346422 -0.09205388
-0.06261817 0.10039478 -0.1474119 0.10915327 -0.07857934 0.03524595 -0.058464002 -0.10195662
0.07198724 0.09320829 0.0816949 -0.12517025 -0.073365 -0.055614546 0.07312069 0.12474958
-0.033206463 -0.09861504 -0.050661325 0.09941652 -0.06079025 0.08212779 -0.06653918 -0.064647034
-0.040712547 -0.10880497 -0.08506176 0.060965065 -0.07119609 -0.1275256 0.034801923 0.10791864
0.078091145 0.10577352 -0.044546872 0.035405487 -0.08539867 0.043368265 -0.052619133 0.061649125
0.043049324 0.06214462 0.10337901 -0.09188224 -0.04747465 -0.10091853 -0.062487207 0.11692728
-0.111757986 0.0498015 -0.07241642 -0.12988384 -0.05644792 -0.097249575 -0.10933802 -0.08432199
0.11489181 0.08721537 0.08725079 0.040203586 0.08688517 -0.042612027 0.10758801 0.10065672
-0.12126388 -0.064619035 0.051584464 -0.10649391 -0.049312156 -0.11341564 0.08671601 -0.055624466

relation_embeddings.weight f4 [4, 128]
00000000: 153f 673d dbd5 2cbe 302d 203e 4e5a 34be
00000010: 0332 2fbe a24d 6039 74e1 e73d 6e83 31be
00000020: 989e 27be d4c1 bcbd b9af 16be c900 fa3d
00000030: cbdf 3bbe 7cdc c83c eaef 393e 024f 013e
00000040: bdda 14be 57bd a4bd 8dc2 f7bd c4a4 bf3d
00000050: 9847 12be 2124 2c3e e78c fe3d 8278 1d3e
00000060: c4c5 b6bd 57ff 0dbd 244f 0f3e eedc 18be
00000070: f69e d53d dec8 383e efec 72bd 65b0 003e
00000080: 267a 22be 4cf5 06be 8f03 bdbd 937f c13d
00000090: 8ae3 ee3d b8fb 583d 77fb 0c3e 9dd4 f5bd
000000a0: d809 0bbe 63d4 11be f4ef 3bbe 9854 c1bd
000000b0: 4c3e 2fbe 6e04 183e a696 133e 49ad 303e
000000c0: 0e72 0c3e 1583 9d3d b790 e9bc 00c4 11bd
000000d0: 742a 24be 7b53 b23d 93ff 1a3e 7e54 04be
000000e0: db0d 2bbe 90a1 103e a102 c7bd a3b4 f23d
000000f0: d0d7 1d3e 1d48 2f3e 379b ee3d 793a 09be
00000100: 879b 553d ad84 173e 42cd 29be 9f82 723d
00000110: 73e0 f33d 105c 0f3e e87c 103d d2d8 08be
00000120: d0ca 24be cabb 173e 7b2d 1cbe 5045 37be
00000130: 0021 32be 5560 1ebe 435a 263e 1a99 0e3e
00000140: 3de8 eb3d c8c3 173e e5ab 3b3e 384f 02be
00000150: 3767 193e 4052 f43d dac6 bc3d 39e3 d03c
00000160: 92c4 003e 700f 153e db22 d23d a63b 2abe
00000170: c72f 0dbe 2efa 1c3e 6880 273e a859 3abe
00000180: 1da9 3dbe b53f 273e 6cef ed3d be71 343e
00000190: 20ae 34be 1249 d4bd dca2 033e 8a64 2cbd
000001a0: 461e 0abe fa5d 16be a913 663c 93b2 263e
000001b0: b14d 1fbe de08 193e 57ad 37be 791e e2bd
000001c0: 8872 2fbe 1dca 13be 223b 27be 8526 f6bd
000001d0: 49dc 0c3e db33 1cbe 926f a5bd 7fb1 bfbb
000001e0: 8fab 0bbe dd20 93bd cb0b 173e 0902 a83d
000001f0: a646 033e 9970 b8bd 3898 9c3c a670 863d
00000200: 0d2d 04be 67dc 3fbe 781e 363e 70f1 84bd
00000210: 055f 44be aa4d 1c3e 0ccd d8bd 54a5 4bbe
00000220: eb34 37be c352 53be fc99 1cbd fa7d 023e
00000230: 2ebe 93bd 0f56 da3d 5c0a 4b3e 903f 12bd
00000240: 54c4 643d 18f9 39be 68f5 823d bc34 e4bd
00000250: bb59 66be c8a2 2d3e 0ea0 20bd d472 9e3c
00000260: cb99 e73d ee92 20bc cd03 81bd 8604 583d
00000270: dab8 fe3d 8aeb 363e 032b 3ebe 7369 40bd
00000280: eb0b d4bd 33a4 c83c fa2e 24be 8d39 c9bd
00000290: 1932 a9bd 573d bfbd 4b1d adbc fbfd aabd
000002a0: e70d c13c e854 f63a 21a2 4bbe 8479 99bb
000002b0: feb6 cebd 4355 37bd cf21 8dbd a223 a83d
000002c0: 45ff a3bd f667 433e 173a 263d 32b6 1a3e
000002d0: a464 02be 5723 433e e624 4d3e d488 c33d
000002e0: 0ddb 4cbe a60c 3d3e a60c ca3d 121e 473e
000002f0: 7d6a 49bd 8c38 4d3e f8ca c9bd f5a9 2abe
00000300: c551 15be 77a4 06bd e57d 3cbe 58bc 213d
00000310: d808 4c3e 5059 4e3e 1864 1a3e 100e f83b
00000320: 25b2 57be fd9d 5b3e eee7 1a3d 56eb 1bbe
00000330: 5b6f 8ebd 8b0a d4bd d6df dabc ab3a a43d
00000340: 9a78 343e f9c3 5c3e 2a3c 0a3e 8e66 7c3d
00000350: e67b 56bb 8b82 3d3e 0e4c ddbc f43f e4bd
00000360: a457 dd3c 6dff 003e c7a8 bbbd 7466 4fbe
00000370: 7618 6bbb 860b ff3d 0196 8a3c 4ab7 1dbe
00000380: 74ae 83bc 1db5 5a3e 9986 2cbd 34a9 563e
00000390: 0396 9cbd a36c a8bd 7472 b2bd da41 7cbd
000003a0: 5569 773d 3974 5abe 0652 cabd 1bbc 393e
000003b0: 84b9 6b3b c762 85bc 4b0a 02be 3509 ad3d
000003c0: 27c2 aabd e854 3e3d bbd9 90bb 9664 a63d
000003d0: 9fb9 2e3e e14d 803c 810a 14be 765d fbbd
000003e0: 2831 c8bd c5d4 bdbd 363b 483e 4c50 373e
000003f0: 7210 87bd 55fa f03d 9782 0ebe b34f 87bd
0.056456644 -0.16878454 0.15642238 -0.17612574 -0.17108922 0.00021391225 0.11322299 -0.17335293
-0.16369092 -0.09216657 -0.1471547 0.12207181 -0.18347089 0.024519198 0.18157926 0.12627795
-0.14536567 -0.08043926 -0.120976545 0.093575984 -0.14285123 0.16810657 0.12429219 0.15378001
-0.089244395 -0.03466734 0.13995034 -0.14928028 0.1043071 0.18045375 -0.05930799 0.12567289
-0.15866908 -0.13179511 -0.092291944 0.09448161 0.116644934 0.052974433 0.13767801 -0.120034434
-0.13577974 -0.14241175 -0.18353254 -0.09439963 -0.17113608 0.1484544 0.14412937 0.17253603
0.13715383 0.076910175 -0.028511388 -0.03558731 -0.1603182 0.08707329 0.15136556 -0.12922856
-0.16704504 0.14124131 -0.09717298 0.1185086 0.15414357 0.17117353 0.11650699 -0.13401212
0.052150276 0.14796706 -0.16582206 0.0592066 0.11908045 0.13999963 0.03527537 -0.1336396
-0.16092992 0.1481773 -0.15251724 -0.17897534 -0.17395401 -0.15466435 0.1624537 0.13925591
0.11518905 0.14820778 0.18327291 -0.12725532 0.1498078 0.119297504 0.092176154 0.025498973
0.12574986 0.1455667 0.102605544 -0.16624317 -0.13787757 0.15329811 0.16357577 -0.18198264
-0.18521543 0.16332896 0.11617932 0.17621514 -0.17644548 -0.103654996 0.12855095 -0.04208807
-0.13488111 -0.14684287 0.014042773 0.16279058 -0.1555698 0.14944789 -0.17937218 -0.110409684
-0.17133534 -0.14432569 -0.16331151 -0.12019066 0.13755907 -0.15254156 -0.08077921 -0.0058500166
-0.13639663 -0.071840025 0.14750592 0.08203513 0.12819919 -0.09005851 0.019115552 0.06564455
-0.1290781 -0.1873642 0.1778506 -0.06491363 -0.19176872 0.15264001 -0.105859846 -0.19887286
-0.1789128 -0.2063704 -0.03823279 0.12743369 -0.07214008 0.106609456 0.1982817 -0.03570515
0.055851296 -0.18161428 0.06394464 -0.11142871 -0.22495167 0.16956627 -0.03921514 0.019341864
0.113086306 -0.009800656 -0.06299553 0.05273869 0.124376014 0.17863289 -0.18571095 -0.046975564
-0.10353836 0.024492359 -0.16033545 -0.0982543 -0.082615085 -0.093378715 -0.021132132 -0.08349224
0.0235662 0.0018793615 -0.19886066 -0.0046836752 -0.10093497 -0.044759046 -0.06891214 0.082099214
-0.08007673 0.19082627 0.040582743 0.15108564 -0.12733704 0.1905645 0.20033607 0.09547582
-0.20005436 0.18461856 0.09865694 0.19445065 -0.04917382 0.20041102 -0.09853166 -0.16666396
-0.14581974 -0.03287169 -0.184074 0.03948626 0.19925249 0.20151258 0.15077245 0.0075700358
-0.2106405 0.21446986 0.03781884 -0.15226492 -0.06954833 -0.103535734 -0.026718061 0.080190025
0.17624131 0.21559133 0.13499513 0.06162124 -0.0032727658 0.1850683 -0.027013805 -0.111450106
0.02701933 0.12597437 -0.09163051 -0.20253927 -0.0035872734 0.1245337 0.01691723 -0.1540195
-0.016074397 0.21358152 -0.04212055 0.20962983 -0.076458 -0.08223846 -0.087132365 -0.06158624
0.060403187 -0.21333398 -0.09878926 0.18138163 0.003596873 -0.016282452 -0.12699239 0.08449022
-0.08337813 0.04646769 -0.0044204867 0.08124654 0.17062996 0.015662136 -0.14457132 -0.12273686
-0.09775001 -0.09269098 0.19553837 0.17901725 -0.065949336 0.11766497 -0.13917004 -0.06606998
