data/models/trane_model_epoch_10.pth (torch, 423131 bytes, 2 tensors)

entity_embeddings.weight f4 [820, 128]
0	0xbd20fea2	-0.039305337
1	0xbdb10c7f	-0.086449616
2	0x3dc49d19	0.096002765
3	0x3dfeaf8a	0.12435825
4	0xbd785f99	-0.060638044
5	0x3ddd7ba0	0.10814595
6	0xbdcd53a0	-0.10025716
7	0xbe0b322b	-0.13593356
8	0x3dce8aac	0.10085043
9	0xbdb8d3ee	-0.090247974
10	0x3e0db61e	0.13839003
11	0x3cf57294	0.029961862
12	0x3de1ef4b	0.1103197
13	0xbe26e4ed	-0.16298266
14	0xbdb69edc	-0.08917019
15	0xbe08f1c5	-0.13373478
16	0xbdad9273	-0.084751986
17	0xbca599ee	-0.020215001
18	0x3d5063a7	0.050876286
19	0x3de0e867	0.10981827
20	0x3cc1ac63	0.02364177
21	0x3dbe29f5	0.092853464
22	0xbdb08335	-0.08618776
23	0xbd58b2f1	-0.052905027
24	0x3cbacea9	0.022803621
25	0x3d9dd0b6	0.07705824
26	0xbdfc99e9	-0.123340435
27	0x3db01d2d	0.08599315
28	0xbda53e23	-0.08068492
29	0x3dd6f739	0.10496373
30	0x3d0b9446	0.03407695
31	0x3d41d7fd	0.047325123
32	0xbe0811fa	-0.13288108
33	0x3da7807a	0.08178802
34	0x3e068002	0.13134769
35	0xbc83336e	-0.016015735
36	0xbc083cb7	-0.008315257
37	0x3d12021d	0.035646547
38	0xbdbec9c3	-0.09315827
39	0x3c1e1321	0.009648115
40	0x3c1a55a4	0.009419832
41	0x3e0d85dd	0.13820596
42	0xbd98fc3e	-0.074699864
43	0x3da43807	0.08018499
44	0xbd885f86	-0.06658845
45	0x3dbc91bb	0.092074834
46	0xbdd2e906	-0.10298352
47	0x3c8b40c3	0.016998654
48	0xbdff6022	-0.12469508
49	0xbe13fdab	-0.14452235
50	0x3ce19b96	0.02754001
51	0x3d826787	0.063674025
52	0x3db483f7	0.08814233
53	0x3dcacacb	0.09901961
54	0xbdd97538	-0.10618061
55	0xbe19f319	-0.1503414
56	0x3d00180c	0.031272933
57	0x3d446e35	0.047956664
58	0x3d05bd96	0.032651506
59	0xbe38f675	-0.18062766
60	0xbdcea823	-0.10090663
61	0xbd77304c	-0.060348794
62	0xbda6da62	-0.08147122
63	0xbdf4f8e3	-0.11961534
64	0xbdb25bef	-0.08708941
65	0xbd523767	-0.051322367
66	0x3db915a7	0.09037333
67	0xbdd570bf	-0.10421895
68	0xbd97d52e	-0.07413708
69	0xbd247575	-0.04015108
70	0xbdbd8a21	-0.092548616
71	0xbcf64008	-0.03005983
72	0xbdb92bb5	-0.090415396
73	0x3dcb43b4	0.09925023
74	0x3cf5a753	0.029987013
75	0xbcbc6830	-0.0229989
76	0xbdb40953	-0.08790841
77	0x3d4ed3c7	0.050494935
78	0xbdb7ed0a	-0.089807585
79	0x3d9bc671	0.07606209
80	0xbdf75191	-0.120761044
81	0xbda73b07	-0.081655554
82	0xbd10f6e8	-0.03539172
83	0xbe06e911	-0.13174845
84	0x3d9e9634	0.07743493
85	0x3d2de7b3	0.042457294
86	0xbe05aa98	-0.13053358
87	0xbcfd3436	-0.030908685
88	0x3c64df51	0.013969258
89	0xbcd97261	-0.026543798
90	0x3dc3511c	0.09536955
91	0x3dc70803	0.09718325
92	0xbdfdbac6	-0.1238914
93	0xbda4c092	-0.08044542
94	0xbd91a0d6	-0.07110755
95	0x3d7507eb	0.059822004
96	0xbdb5c740	-0.088758945
97	0x3cd94f78	0.026527151
98	0xbdc37e4b	-0.09545573
99	0xbd8f7083	-0.07003882
100	0x3d31d040	0.043411493
101	0x3e072d0a	0.13200775
102	0x3dc5d4d8	0.09659737
103	0xbdc56bca	-0.096397
104	0x3ddba7da	0.107253745
105	0xbe2511fd	-0.16120143
106	0xbd8d99fc	-0.06914136
107	0x3d9e52ed	0.077306606
108	0x3d265d1c	0.04061614
109	0xbdd4f8ce	-0.10399018
110	0xbd8fb10e	-0.070161924
111	0xbe0b7c13	-0.1362155
112	0x3d8c962b	0.0686458
113	0xbdd9b5db	-0.10630389
114	0xbd5c6a89	-0.053812537
115	0x3e2ff4c1	0.1718321
116	0x3c89d82d	0.016826713
117	0x3d47f3dc	0.048816547
118	0x3caeff97	0.02136211
119	0xbe009f44	-0.12560755
120	0xbdcb6ee2	-0.099332586
121	0x3c89fd5b	0.016844442
122	0xbd73550a	-0.05940727
123	0xbd57c1fb	-0.05267523
124	0xbdd9fa65	-0.10643462
125	0xbd970550	-0.0737406
126	0x3bfd3ab6	0.007727946
127	0xbda030a6	-0.07821779
128	0x3b4e0fcd	0.0031442523
129	0xbd3f4c6c	-0.04670374
130	0x3ddd5bbb	0.10808512
131	0x3d882160	0.06646991
132	0xbe2b509b	-0.16729967
133	0x3d6d5dda	0.057950832
134	0xbd839ca3	-0.064263605
135	0xbdd6e49b	-0.10492822
136	0x3e02dddb	0.12779944
137	0xbe04c044	-0.12963969
138	0x3de617e4	0.112350255
139	0x3c4178eb	0.011808614
140	0x3d2533d9	0.04033265
141	0xbd4d0695	-0.050055105
142	0xbe052b83	-0.1300488
143	0xbe1188f6	-0.14212403
144	0xbdcbdc07	-0.09954076
145	0xbd85aa87	-0.06526666
146	0x3db57dd7	0.08861893
147	0x3d7e868e	0.06214004
148	0x3d4d07a1	0.050056104
149	0x3b4693d2	0.003030051
150	0xbddaafe7	-0.10678082
151	0xbd740b80	-0.05958128
152	0x3cd1358f	0.025538234
153	0x3dd7cd9e	0.10537265
154	0xbdc22b16	-0.09480874
155	0x3d9e7b4c	0.07738361
156	0xbd56e17a	-0.052461125
157	0x3e08c0b7	0.13354765
158	0x3dc4ab2e	0.096029624
159	0x3d1044af	0.03522175
160	0xbd6fdfad	-0.058562923
161	0x3de08881	0.10963536
162	0x3d6df1f4	0.058092073
163	0x3cdc8a0a	0.02692129
164	0x3b8e8471	0.0043492843
165	0x3d58dcb0	0.05294484
166	0xbd01f0d5	-0.031723816
167	0x3dc85b7b	0.097830735
168	0x3d7f93c5	0.062396783
169	0x3db48c48	0.08815819
170	0xbe12c593	-0.14333181
171	0xbb0b1056	-0.0021219454
172	0xbdfcf197	-0.12350767
173	0x3dc6ed2c	0.09713206
174	0xbe00ac75	-0.12565787
175	0x3bc13a4d	0.0058968426
176	0xbe1ce766	-0.15322646
177	0xbdad3893	-0.08458056
178	0x3db6d3d2	0.0892712
179	0x3d372185	0.0447097
180	0x3e042cc6	0.12907705
181	0x3dba7911	0.09105123
182	0xbcec5447	-0.02884878
183	0xbdb8f4a6	-0.09031038
184	0x3da62e67	0.08114319
185	0x3db9d504	0.09073833
186	0xbd33e878	-0.04392287
187	0xbd82de74	-0.06390086
188	0xbd803292	-0.062596455
189	0xbca14179	-0.01968454
190	0xbd4b41e2	-0.049623378
191	0xbd8d4072	-0.068970576
192	0xbde6c000	-0.1126709
193	0xbddb3ba8	-0.10704738
194	0x3deda13f	0.11603021
195	0xbdcded82	-0.10055067
196	0xbda6bcfa	-0.08141513
197	0xbb8140de	-0.0039445003
198	0xbd619210	-0.055070937
199	0xbd85ddb6	-0.06536429
200	0xbd9fec43	-0.07808735
201	0x3dd83cdc	0.10558483
202	0x3d8cfea6	0.06884508
203	0xbd9bfb40	-0.076162815
204	0xbdbf0672	-0.09327401
205	0x3e0b2a0c	0.13590258
206	0xbdc5e8cc	-0.09663543
207	0x3e005628	0.12532866
208	0xbd9e0a13	-0.07716765
209	0xbdcb146d	-0.09916005
210	0xbdf0623e	-0.11737488
211	0xbdba9597	-0.09110563
212	0x3da07901	0.0783558
213	0x3c886c98	0.016653344
214	0xbda61bd8	-0.081107795
215	0x3d5e8306	0.054324172
216	0xbbee9b9c	-0.0072817337
217	0xbc54f95b	-0.012998904
218	0x3deb189f	0.114793055
219	0x3e061de1	0.13097335
220	0xbe33fd5d	-0.17577119
221	0xbe061f57	-0.13097893
222	0xbdae14d3	-0.08500066
223	0xbbef1c31	-0.007297062
224	0xbdfd11ff	-0.12356948
225	0xbcfd9e30	-0.030959219
226	0xbdac8cc0	-0.084252834
227	0xbd98baf3	-0.07457533
228	0x3d0ef2c0	0.034899473
229	0x3de738dc	0.11290142
230	0x3d64355b	0.055714946
231	0xbcdfbcfe	-0.027311798
232	0x3dd306de	0.10304044
233	0xbe0f813c	-0.14014143
234	0xbdabc39e	-0.083869204
235	0x3ddb4d48	0.107080996
236	0x3d56a8b0	0.052406967
237	0xbd617fa4	-0.05505337
238	0xbde3d49c	-0.111245364
239	0xbd9d8e5a	-0.07693167
240	0x3de524fc	0.11188695
241	0xbd6cc7d3	-0.057807755
242	0xbd790fe8	-0.060806185
243	0x3d5dd898	0.054161638
244	0x3cf6e7b6	0.030139785
245	0x3db5dd59	0.08880109
246	0x3c120584	0.008912448
247	0xbe02dcd0	-0.12779546
248	0xbe0b1e69	-0.1358582
249	0x3be1a8f1	0.0068865945
250	0xbe17b50a	-0.14815155
251	0xbde6933f	-0.11258554
252	0xbd074220	-0.033022046
253	0xbe27aef3	-0.16375332
254	0x3cfe388b	0.031032821
255	0xbd7baee2	-0.061446078

relation_embeddings.weight f4 [4, 128]
0	0xbe9e1ccb	-0.30881342
1	0x3ea37713	0.31926784
2	0x3e1268b6	0.14297757
3	0x3ea3d06a	0.31994945
4	0x3e9c618f	0.3054318
5	0xbeb7333b	-0.35781273
6	0x3d0e547d	0.034748543
7	0xbe5b36ac	-0.21407574
8	0x3eb1de26	0.34739798
9	0x3e1891ba	0.1489934
10	0xbe80acfc	-0.25131977
11	0x3e99f6c6	0.30071086
12	0xbe9ad8e2	-0.30243593
13	0x3dd47e5d	0.103756644
14	0xbe9bf6a5	-0.30461612
15	0xbd15016c	-0.03637831
16	0xbe88c444	-0.2671224
17	0x3d8083a2	0.06275107
18	0xbea4f7be	-0.32220262
19	0xbe5f952b	-0.21834247
20	0xbe870b19	-0.26375654
21	0x3e44b916	0.1921123
22	0x3ddc7938	0.10765308
23	0x3e80a869	0.25128487
24	0x3da360f7	0.07977479
25	0xbe0f552c	-0.13997334
26	0x3e91c505	0.28470626
27	0x3eb37e32	0.35057217
28	0xbe8a88f0	-0.270576
29	0x3e3ace90	0.1824286
30	0xbe73aacc	-0.23795623
31	0x3ceb48e7	0.028721286
32	0xbdc7ce58	-0.09756154
33	0xbe690011	-0.22753932
34	0x3e6f5516	0.23372301
35	0x3e9b5ab8	0.3034265
36	0x3d964c76	0.073388025
37	0x3e55776f	0.20846342
38	0xbe667574	-0.22505742
39	0xbe2efe1c	-0.17089123
40	0xbe833125	-0.25623432
41	0x3e34fbd2	0.17674187
42	0xbe674122	-0.2258344
43	0x3ea2b695	0.31779924
44	0x3e90f403	0.28311166
45	0xbeae33ec	-0.34023988
46	0xbe04447f	-0.12916754
47	0x3e975fd7	0.29565307
48	0xbebb23c9	-0.3655074
49	0xbd989dc9	-0.0745197
50	0x3e4624b1	0.19349934
51	0x3ddcae1f	0.107753985
52	0xbdaf2639	-0.08552212
53	0xbeaaa052	-0.3332544
54	0xbea105a1	-0.31449607
55	0x3cd8f682	0.026484732
56	0xbeb30ac0	-0.3496914
57	0x3e998874	0.29986918
58	0x3e755c96	0.239611
59	0xbe769657	-0.24080788
60	0xbe6f972d	-0.23397513
61	0x3e98e4a8	0.2986195
62	0xbe84915d	-0.25892153
63	0x3eba2098	0.36352992
64	0xbe9ae2ea	-0.30251247
65	0x3e8450e7	0.25842974
66	0xbe7cbf83	-0.24682431
67	0xbe446d88	-0.19182408
68	0xbe92eb40	-0.28695107
69	0xbd0824e6	-0.033238314
70	0x3ec2f873	0.38080177
71	0x3e6045c4	0.21901613
72	0x3ebba32c	0.36647928
73	0xbead12be	-0.33803362
74	0x3e8376ae	0.25676483
75	0xbe4c46d8	-0.199489
76	0x3e82e076	0.25561875
77	0x3e8ea46a	0.27859813
78	0xbec14967	-0.37751314
79	0xbeb8d46f	-0.36099574
80	0xbe190f2e	-0.14947197
81	0xbd7ab8ff	-0.061211582
82	0xbe103255	-0.140817
83	0x3dad3dfb	0.084590875
84	0x3e8315f3	0.25602683
85	0xbe98ff3e	-0.29882234
86	0xbe8fbaf5	-0.28072324
87	0xbe9bf654	-0.3046137
88	0x3e8ec498	0.27884364
89	0x3e950d11	0.2911153
90	0x3e52c34c	0.20582312
91	0xbea37482	-0.31924826
92	0x3e9b0589	0.3027766
93	0x3e593bfb	0.21214287
94	0x3e8455b2	0.2584663
95	0xbea3e82e	-0.32013077
96	0x3e2f1984	0.17099577
97	0x3e7d59de	0.24741313
98	0xbdd4f238	-0.10397762
99	0x3e8772a8	0.26454663
100	0xbe869f69	-0.26293495
101	0x3e301e23	0.17198996
102	0x3e8570e6	0.26062697
103	0xbe95ffa3	-0.29296598
104	0x3e626dd7	0.22112213
105	0xbe582aa2	-0.21110013
106	0xbe5594dc	-0.20857567
107	0xbe99621b	-0.2995766
108	0xbebe40f1	-0.3715892
109	0xbeb6add3	-0.35679492
110	0x3e8ea0c0	0.27857018
111	0x3e89f383	0.26943597
112	0x3e973107	0.29529592
113	0xbe933abc	-0.28755748
114	0xbe20ac90	-0.15690827
115	0x3e9c9e4d	0.30589524
116	0xbe92472a	-0.2856992
117	0xbe881f8f	-0.26586577
118	0x3e9718c2	0.29511076
119	0x3e290668	0.1650635
120	0x3e867598	0.26261592
121	0x3e1bbe30	0.1520927
122	0x3e94a19a	0.29029542
123	0xbe782d5c	-0.24236053
124	0xbe98697c	-0.29767978
125	0x3ec03f54	0.37548316
126	0x3e95c165	0.2924911
127	0xbeaaa950	-0.333323
128	0x3d6371c2	0.05552841
129	0xbe42af1d	-0.19012113
130	0x3ddedc2e	0.1088184
131	0x3e06cb05	0.13163383
132	0x3e2a5146	0.16632566
133	0xbce23ac4	-0.027615912
134	0x3de009e7	0.10939389
135	0xbd0deb10	-0.034648
136	0xbcd19290	-0.025582582
137	0xbc9149b2	-0.017735336
138	0xbe66b51a	-0.22530022
139	0x3d2c75c0	0.042104483
140	0x3e273c1e	0.16331527
141	0x3cfb8e7f	0.030707596
142	0xbe10dc43	-0.14146523
143	0x3d43aa5f	0.0477699
144	0xbec37772	-0.38177067
145	0xbe941364	-0.28921044
146	0xbe695e4c	-0.22789878
147	0x3dcd41cf	0.100223176
148	0xbeb730e9	-0.35779503
149	0x3e269125	0.16266306
150	0x3e6c20c7	0.23059379
151	0xbd54f10d	-0.051987696
152	0x3e964f97	0.29357597
153	0x3e6d9450	0.23201108
154	0xbe4270e8	-0.18988383
155	0x3e882f67	0.26598665
156	0xbe93ced2	-0.2886873
157	0x3e8351ac	0.25648248
158	0x3e297e5a	0.16552106
159	0xbdab9ccf	-0.08379518
160	0xbe9d352c	-0.3070463
161	0xbea27ccd	-0.3173584
162	0xbdfc6779	-0.12324423
163	0x3e24557a	0.16048232
164	0xbe713f63	-0.23559336
165	0xbd0a09cc	-0.03370075
166	0xbe776d30	-0.24162745
167	0x3e2584a5	0.16163881
168	0xbea283d3	-0.317412
169	0xbdeec42f	-0.11658513
170	0xbca420b0	-0.020035118
171	0xbdf3f48d	-0.11911879
172	0x3ea3d62d	0.3199934
173	0xbe674645	-0.225854
174	0x3e48667d	0.19570346
175	0x3e8e7747	0.27825376
176	0xbde6e093	-0.11273303
177	0xbb803b4c	-0.0039133187
178	0x3df3c072	0.119019404
179	0x3c5cfc64	0.013487909
180	0x3db90919	0.09034938
181	0xbe4ae0f7	-0.1981238
182	0x3dba3eaf	0.09093987
183	0xbe18f409	-0.14936842
184	0xbec14f58	-0.37755847
185	0x3db431ae	0.08798538
186	0x3ec03cdc	0.37546432
187	0xbe95a8be	-0.29230303
188	0xbddf8f15	-0.109159626
189	0x3e58c8f8	0.21170413
190	0xbec678a3	-0.38763914
191	0x3e319f4f	0.17345928
192	0xbda351d6	-0.07974593
193	0xbd8a9e9c	-0.067685336
194	0x3ca61e58	0.02027814
195	0x3e52c651	0.20583464
196	0xbd969206	-0.073520705
197	0x3deaa521	0.11457277
198	0x3e729451	0.2368939
199	0x3eca21d7	0.39478943
200	0x3e9b7798	0.3036468
201	0xbea19efe	-0.31566614
202	0x3ebea290	0.372334
203	0xbe17790d	-0.14792271
204	0xbd9bf8cc	-0.076158136
205	0x3d29bfb2	0.04144258
206	0xbe762ffc	-0.24041742
207	0xbde288d2	-0.11061253
208	0x3e436236	0.19080433
209	0xbea4aa07	-0.3216097
210	0xbe643279	-0.22284879
211	0xbe88efe6	-0.26745528
212	0x3eb47283	0.35243616
213	0xbe0cfedb	-0.13769095
214	0x3d0b8fad	0.034072567
215	0xbdec3763	-0.11534002
216	0x3eca56e9	0.39519432
217	0x3e581c2c	0.21104497
218	0x3e408c2d	0.18803473
219	0x3df39f4f	0.1189562
220	0x39c46f50	0.00037466967
221	0xbe7e9154	-0.24860126
222	0xbd11d6c5	-0.03560521
223	0xbd0f4f2a	-0.034987606
224	0x3d85a5ca	0.065257624
225	0x3e32b30f	0.17451118
226	0xbe051224	-0.12995201
227	0x3e7268da	0.2367281
228	0xbdc34841	-0.09535266
229	0x3cd64d29	0.02615984
230	0xbd93dd8a	-0.072199896
231	0xbe31ed8f	-0.17375778
232	0x3ca37e79	0.019957768
233	0x3dc03d47	0.09386688
234	0x3e179d54	0.1480611
235	0xbe8e664e	-0.27812427
236	0xbd52edf4	-0.05149646
237	0x3d8a2391	0.06745065
238	0x3e999b4d	0.30001298
239	0x3daad43c	0.08341262
240	0xbe03559d	-0.12825628
241	0xbe984ec6	-0.297476
242	0xbe8138a8	-0.25238538
243	0xbdc94b68	-0.09828836
244	0xbddf4912	-0.10902609
245	0xbec8be20	-0.39207554
246	0x3e8e5092	0.27795845
247	0x3e3f272d	0.18667288
248	0x3e112bae	0.14176819
249	0xbe7c8d7d	-0.24663348
250	0x3e53fe17	0.20702396
251	0x3d4c0b60	0.049815536
252	0xbea4f26a	-0.32216197
253	0x3e830758	0.2559154
254	0x3e9e5869	0.30926827
255	0xbe9709df	-0.2949972
