data/models/trane_model_epoch_90.pth (torch, 423131 bytes, 2 tensors)

entity_embeddings.weight f4 [820, 128]
00000000: deaa 01be 14f4 9dbd e64f 44bd c245 03be
00000010: be09 abbd e729 1b3e 7ff2 84bd 8e44 55bd
00000020: f6ae 51bd ea1c 003e c67c 8cbd c6ff 76bd
00000030: 9841 04bd 943c dfbd e7f8 d23d d831 c6bd
00000040: 8690 83bd bc62 783d e0f7 9f3c 8063 13be
00000050: d38d afbc a896 cfbd f876 893d a301 813d
00000060: 5fa7 bd3d c068 8bbd a6b5 e4bd 6549 3f3d
00000070: e638 a8bd 0e2b ef3c 0c8d 5cbd 0013 2bbe
00000080: 106a bc3d 5be7 cbbd c68b 17be 1432 fabc
00000090: ae15 04be acd6 923d 3de0 f3bd b767 e2bd
000000a0: e9e5 f9bd 3f55 ee3d 527c e4bd b468 e43d
000000b0: 546d 4d3d b6a5 403d 0ded 9f3d 61e2 9b3d
000000c0: 75a1 43bd bced 853d 0463 24be aa0c 93bd
000000d0: aba0 903d 7aed aa3d daa4 d7bd 1860 d83c
000000e0: 6966 573d 1a7a 48bd 8731 583d 44e0 343e
000000f0: 77f3 453d 74ca 5a3d f176 5d3d ec10 f8bc
00000100: c1d4 4fbd a504 a93d d5ac b23d 197d 0fbe
00000110: 9769 3b3d 6d5f 91bd ab90 fb3d 37b8 ac3d
00000120: d8b2 fe3d 2a49 66bd 84d0 5ebd dc76 0b3e
00000130: e78a 84bd 0c67 83bd 6b0a ff3c b987 b9bd
00000140: 3a97 f4bd d3d8 17bd 63db 153d 3a2f 493d
00000150: f0e9 843d 5d6b bfbd eaea 0f3e ebdd 1fbe
00000160: dd39 02be c136 c83d 3252 993d 76a4 5e3d
00000170: 7cde 1a3d a2c1 813d ac19 1abe 92bd b2bd
00000180: 6e55 363d f4b5 a6bd d328 973d 8bb5 babd
00000190: ef4d 573d 0be8 f53c 88bd ad3d 753d 1c3e
000001a0: 68f3 8ebd 4143 17bd 5a00 843d 74d9 5abd
000001b0: 067c 5e3d 97bf 2f3e 2004 b53d ab17 873d
000001c0: 033d bebd 8398 9f3d dc4d 783d 5b86 ec3d
000001d0: 67d2 4fbd e686 1abd 3a20 7b3d 1fa7 3abd
000001e0: fbe1 5d3c 49ec 0fbe b305 d03d 28ac 91bd
000001f0: 8a40 613d ffc7 d1bd 70a5 3bbd 24e6 5e3d
00000200: 247e 01be 3b51 0fbd a131 0ebd 1ebf f0bd
00000210: 4894 72bd 7cb8 1a3e 65a8 3fbd 637d 2cbd
00000220: 00dc f4bc ad4d 143e 7e16 82bd 4e24 13be
00000230: dfdd 5abc a7d1 02be 94e3 ac3d 5768 babd
00000240: 87d7 b2bd 893b 693d 4349 ae3c 227b 34be
00000250: 003b 56bc d992 07be 9929 773d e922 a03d
00000260: 1be9 6b3d 97fa 9cbd aec6 b2bd 1cce de3c
00000270: c391 84bd b77a ef3c 4b64 43bd f487 28be
00000280: 0b31 773d 5efb a8bd b13b 1ebe 392b 12bd
00000290: b115 0cbe 1373 583d c986 0fbe 342c d5bd
000002a0: 5a7e dbbd ef42 af3d 6658 6dbd 67ca e23d
000002b0: 4337 163c 2e93 493d c32e 893d 7290 7d3d
000002c0: 6e5a 14bd 39a7 773d 9b00 18be 8b24 b9bd
000002d0: a10b d43d c15e a93d c66b dfbd ca3e f43c
000002e0: 903f cc3d 5bdf 21bd f938 823d b939 253e
000002f0: a9b4 843d 1e3d 1f3d 7875 083d 6d74 25bd
00000300: ae07 09bd e7aa 683d 2a7d 9e3d 6f9a 35be
00000310: b45b fa3c cad0 17bd 8b0d 0f3e c9a5 8d3d
00000320: bc29 183e 912d 3bbd bb74 4ebd 229c 273e
00000330: 0f20 2dbc fa31 30bd 8872 e13c 4d79 01be
00000340: e08d 08be 3fe6 f2bc 0561 1c3d 6272 a43c
00000350: 85a6 c83d 1fd7 81bd 932c 0c3e f592 0abe
00000360: eb58 fbbd 9f20 0b3e b8b4 2c3d 284d 2e3d
00000370: 1de7 bd3c 8598 073d ac0e 26be 19a0 5abd
00000380: 2528 103d 3d1c fabd 7004 5a3d 2b45 babd
00000390: 9f05 3e3d 8ab7 083d 9c9c aa3d efc9 203e
000003a0: fb26 7cbd 8cfc ecbc 8437 853d 5084 8dbd
000003b0: 3505 383d 61e9 283e 5b9e a03d d0fe b73d
000003c0: 53a8 04be 2864 8e3d 1778 943d 6152 de3d
000003d0: 64da 25bd c0a7 07bd cdd1 1b3d 2551 bcbc
000003e0: 953c 2e3c cffd 18be 39a8 913d c445 4cbd
000003f0: c4b8 8f3d bed9 c6bd 9158 08bd 14b0 073d
-0.12662837 -0.0771257 -0.04792776 -0.12819579 -0.083514675 0.15152703 -0.06491565 -0.052067332
-0.051192246 0.1251103 -0.06859736 -0.06030252 -0.032289118 -0.10900226 0.103013806 -0.09677476
-0.0642405 0.060641035 0.019527376 -0.14393425 -0.021429932 -0.10136157 0.067121446 0.0629914
0.09260439 -0.06807089 -0.11167459 0.046700854 -0.082139775 0.029195335 -0.05384545 -0.16706467
0.09199917 -0.09956237 -0.14799413 -0.030541457 -0.12898895 0.07169852 -0.119080044 -0.11054938
-0.12202055 0.11637353 -0.11156525 0.11152783 0.05015309 0.047033034 0.07808886 0.07611538
-0.0477614 0.06539485 -0.16053396 -0.0718015 0.07061895 0.08346076 -0.1052949 0.026413009
0.0525879 -0.04894457 0.052781608 0.17663676 0.04832789 0.05341573 0.05406851 -0.030281506
-0.050740007 0.08252839 0.08724371 -0.14012565 0.045754995 -0.07098279 0.122834526 0.08433574
0.124364555 -0.05622212 -0.054398075 0.1361956 -0.06471806 -0.06416139 0.031132897 -0.0905909
-0.11942907 -0.037072014 0.036586177 0.049117304 0.064899325 -0.0934665 0.14054456 -0.15611999
-0.12717386 0.097760685 0.07486381 0.05435606 0.037809834 0.06335761 -0.15048856 -0.08727564
0.044515066 -0.081401736 0.073808335 -0.09116658 0.052564558 0.030017873 0.08483416 0.15257819
-0.0698002 -0.036929373 0.064453796 -0.053430036 0.054317497 0.1716293 0.088386774 0.06596311
-0.09288981 0.07792761 0.060621127 0.11549064 -0.050737765 -0.037726305 0.06131003 -0.045569535
0.0135426475 -0.1405498 0.10157337 -0.07112914 0.05499319 -0.10243224 -0.04581207 0.054418698
-0.12645775 -0.034989577 -0.0347153 -0.11755203 -0.059223443 0.15109438 -0.046791453 -0.042111766
-0.02989006 0.14482756 -0.06351946 -0.14369318 -0.013358562 -0.12775289 0.084418446 -0.091019325
-0.08732515 0.056941543 0.021275168 -0.17625096 -0.01307559 -0.13239612 0.060342405 0.078191586
0.057595354 -0.07664984 -0.087293014 0.02719789 -0.06473114 0.02923332 -0.04770307 -0.16458112
0.060349505 -0.082510695 -0.15452458 -0.03568575 -0.1368015 0.05284412 -0.1401626 -0.10408822
-0.10717459 0.085576884 -0.05794563 0.110737614 0.009168449 0.049212627 0.06698372 0.061905332
-0.036219053 0.06046221 -0.14843981 -0.09040173 0.103537805 0.08270026 -0.10909228 0.029815096
0.09973061 -0.03951965 0.06358523 0.161353 0.06479771 0.038876645 0.033315152 -0.040394235
-0.03345459 0.05680361 0.07738717 -0.17734693 0.030561306 -0.03706435 0.1397001 0.06916387
0.1485967 -0.045697752 -0.05040429 0.16368154 -0.010566725 -0.04301641 0.027520433 -0.12643929
-0.13335371 -0.029650806 0.038178463 0.020074073 0.09797386 -0.06339859 0.13688879 -0.13532622
-0.12272819 0.13586663 0.042164534 0.04255405 0.023181492 0.03310444 -0.16216534 -0.053375337
0.035194535 -0.12212417 0.05322689 -0.09095224 0.04639208 0.03337816 0.08330652 0.15702032
-0.061560612 -0.028929017 0.065047294 -0.06910002 0.04492684 0.16495277 0.07842704 0.089841485
-0.12954836 0.06952697 0.07249468 0.10855556 -0.040491477 -0.033118963 0.03804188 -0.022987911
0.010634561 -0.1494057 0.07112164 -0.04987122 0.07017663 -0.097095 -0.03328759 0.033126906

relation_embeddings.weight f4 [4, 128]
00000000: 1958 8c3d f059 173e 32fd 173e 033d 97bc
00000010: d1c8 1b3e 0ef2 8f3c 49c6 2c3e 763d 18be
00000020: 4cd7 113e d45b 31be ae8a 353e f2ff 34be
00000030: acc6 413e 9faa 9a3d 8408 91bd 3137 00be
00000040: b90e b13d aa00 4e3e b857 823d 0a87 183e
00000050: 6dba 43be eecd abbd a573 c1bd e40a 1cbe
00000060: 40f8 f4bd d52a 323e b0b4 113e 93c8 df3c
00000070: 57f6 183e 8528 c53d 5a41 f8bd 9a54 a63c
00000080: 3c20 27be 6509 713d a66d bcbb e710 eb3d
00000090: 4eb5 193e aa86 343e ce08 243e dc92 183e
000000a0: d875 263e 3734 2fbe 3a0d 673d 5ba7 4dbe
000000b0: 76c9 303d 0558 4bbd 5d75 33be 253f 43be
000000c0: 4e5e 52bd 76bc 14be a6eb 113e 0a50 23be
000000d0: 871d 3f3e 0357 0cbe f924 9abd 5c68 de3d
000000e0: 32e0 263e 6e03 3c3e 8a8f 353e f9a7 7abd
000000f0: da47 fdbd 2e53 65bd fe91 bfb9 8891 f5bd
00000100: a4dc 193e a726 a23c 53a9 2bbd 12c7 3abc
00000110: ab4c b7bc 6ce8 873d 26d7 cc3d 4850 773c
00000120: 0593 34be 2223 543d 1e67 8ebd 3341 83bd
00000130: dd2c 173e 687e 043e f17c db3d cabf 4b3e
00000140: d474 cf3d 9ee5 363e 1058 4f3e aab1 2dbe
00000150: e6e5 3b3e 724f 41bc 5c9b 0ebe 7e6a 0c3e
00000160: 377f ad3d b9d9 41bd 2a88 343d 1f4f bdbd
00000170: a2d3 2fbe c8c9 d8bd a96b ab3d a09c 5539
00000180: be21 1cbe 6ead f43d 6aa2 cd3d 7829 2a3d
00000190: 793b 3dbd fd74 d83d b18a 01be 1217 2fbe
000001a0: 52ca 243e fa5f e1bd 3155 f33d 8a81 33be
000001b0: bd25 2a3d 62d3 abbd f381 2ebe cdad bb3d
000001c0: a50c a4bd 3df9 11be d1d0 073e 1a1b 0c3e
000001d0: 984c 253e f2f4 46be 79c6 6cbd 9f60 cd3d
000001e0: 9f1e 2b3e 4601 3a3e fe57 a8bd 4ca5 1cbd
000001f0: 3379 103e ebac 3a3e 8269 39be c1b5 0dbe
00000200: 31a7 6b3d 3403 e83d 103e e73d b3a2 1ebc
00000210: 756e fe3d 2de5 80bc 1a59 063e eef1 abbd
00000220: 26de 003e 7e3b 07be 3839 fd3d bc2c fdbd
00000230: 01e0 0b3e 5c82 373d b4c0 5bbd 1e39 f9bd
00000240: c0af a73d c861 243e 8a6b 6f3d a311 0d3e
00000250: 2c92 02be fb32 7abc f8fa b2bd 5b52 f5bd
00000260: d14b afbd e21f 003e 1eff df3d 65ec 683c
00000270: fc40 063e aa08 453d 4933 9ebd 2887 f03c
00000280: 71c4 02be 2c05 673d d8d5 5d3c 384f 7b3d
00000290: 3db5 ad3d 74b1 0c3e e1a7 133e 08fc bf3d
000002a0: 0cdc ff3d 3bd1 c9bd 7482 1b3d 569c 12be
000002b0: 87f4 863d fdd9 19bd 3018 0bbe 14cd 0bbe
000002c0: 5033 13bd a27a aebd 7133 c03d 2943 bbbd
000002d0: 7188 e73d 80c9 fdbd 605b 88bd 1b40 863d
000002e0: 7ad3 f33d b4e8 123e 6a14 103e e995 6ebd
000002f0: 3b51 a6bd 4550 83bd 1f9e 4a3c df20 ebbd
00000300: 5f91 023e 7e46 7b3c 1cbb 22bd 16ba 273b
00000310: a3d4 8dbc 7c2b 383d 0e58 543d 00f8 2dbc
00000320: 5ed4 0fbe ffd1 243d 81f0 0cbd aa96 63bd
00000330: de46 063e 2f1f fc3d 3232 4e3d eafb 103e
00000340: 92fc d23d dad2 053e fa18 173e 0055 ccbd
00000350: a28c 0b3e a052 e8b7 736d c2bd 67ad bd3d
00000360: e669 603d fa33 d0bc e7b4 6b3d 2ae3 cabd
00000370: e8c6 f4bd 6782 a5bd 7227 9b3d d7f6 503c
00000380: ad84 83bd 23ec b83d 329b 923d 7cc8 dd3c
00000390: fb22 72bd 4829 bc3d fe31 cabd 2ffd f5bd
000003a0: 0c20 cd3d d8bd c8bd cad1 b63d e8f4 f6bd
000003b0: 116b 093d 99e8 8bbd 452f 00be 3f75 913d
000003c0: 7519 83bd 6b06 e6bd d53b d33d 0360 413d
000003d0: 38aa fa3d 7a9a 20be 561d 79bd 8328 993d
000003e0: 736f ea3d d5e3 183e f3ae fcbc 5760 cfbc
000003f0: 4d00 ec3d 60a3 103e 468a 0fbe 6041 9bbd
0.06852741 0.14780402 0.1484268 -0.01846171 0.15213324 0.017571475 0.16872515 -0.14867195
0.14242285 -0.17320186 0.17728683 -0.1767576 0.18923444 0.07552075 -0.07081702 -0.12521054
0.08645386 0.20117441 0.06364387 0.14895263 -0.19114085 -0.08388887 -0.094458856 -0.1523853
-0.119614124 0.17399152 0.14229083 0.02731732 0.14937721 0.09626869 -0.1212184 0.020304013
-0.1632089 0.05884685 -0.005750376 0.11477833 0.15010568 0.17629495 0.16018984 0.14899772
0.16255891 -0.17109762 0.0564091 -0.20083372 0.043160878 -0.04964449 -0.1752524 -0.19067056
-0.051359467 -0.14525017 0.14250049 -0.15948501 0.18663608 -0.13705067 -0.07526583 0.10859749
0.16296461 0.18360683 0.17730537 -0.061195347 -0.1236722 -0.05598753 -0.00036539132 -0.119906485
0.15025574 0.019793821 -0.041909527 -0.011400001 -0.022375425 0.06636128 0.10001974 0.015094824
-0.17634209 0.051791318 -0.06953262 -0.0640892 0.14763208 0.12938845 0.1071719 0.1989738
0.10129705 0.1786103 0.20248437 -0.16962305 0.18349418 -0.011798726 -0.13926452 0.13712499
0.0847153 -0.047326777 0.04407517 -0.09243607 -0.17170575 -0.10585362 0.08370144 0.0002037161
-0.15247247 0.119471416 0.10040744 0.041543454 -0.046199296 0.10569189 -0.12650563 -0.17098644
0.16092804 -0.11004634 0.11881483 -0.17529884 0.041539896 -0.083899274 -0.17041759 0.09164009
-0.08010224 -0.14255233 0.13263251 0.13682213 0.161425 -0.19429377 -0.057806466 0.10028195
0.167109 0.18164548 -0.08219908 -0.038243577 0.14108734 0.18230025 -0.18106654 -0.13838865
0.057532493 0.11328736 0.11291134 -0.009682345 0.12423412 -0.01573428 0.13119927 -0.08395754
0.12584743 -0.13206288 0.12364429 -0.12362048 0.1365967 0.044802055 -0.053650573 -0.12169097
0.081878185 0.16052926 0.058452167 0.13776259 -0.12751073 -0.015270944 -0.08739275 -0.11978599
-0.08559383 0.12512162 0.109373316 0.014216517 0.13110727 0.048103966 -0.077246256 0.029361323
-0.12770249 0.056401417 0.013539754 0.061354846 0.08481834 0.13739568 0.1441951 0.09374243
0.124931425 -0.09854361 0.037966207 -0.1431745 0.06589609 -0.037561405 -0.13583446 -0.1365245
-0.035937607 -0.08519484 0.09384812 -0.09143669 0.11305321 -0.12391949 -0.066580534 0.06555196
0.1190557 0.14346582 0.14070287 -0.058248434 -0.08120962 -0.064117946 0.012366801 -0.11480879
0.12750767 0.015336631 -0.039729223 0.0025593094 -0.017313307 0.044963345 0.051841788 -0.01061821
-0.14045855 0.04023933 -0.03440905 -0.055563606 0.13112971 0.12310635 0.05034084 0.14158598
0.1030208 0.13068715 0.14755622 -0.0997715 0.13627866 -2.769503e-05 -0.09493532 0.092615895
0.054788493 -0.02541541 0.05754557 -0.09906609 -0.11952001 -0.08081513 0.07575883 0.012754164
-0.0642179 0.090294145 0.071585074 0.027073137 -0.05911539 0.09187561 -0.098728165 -0.120111816
0.10015878 -0.09801835 0.08926733 -0.12058431 0.033549372 -0.06831474 -0.12518032 0.07102441
-0.0640134 -0.11231693 0.103141464 0.047210705 0.12239498 -0.15683928 -0.060818993 0.0747843
0.114470385 0.14930661 -0.030845141 -0.025314493 0.11523495 0.14124823 -0.14017591 -0.07580829
