data/models/trane_model_epoch_60.pth (torch, 423131 bytes, 2 tensors)

entity_embeddings.weight f4 [820, 128]
000000 69 09 09 3e f9 0d dd bd ae 67 af 3d 71 eb 44 bd
       0.13382496 -0.10793681 0.08564697 -0.048076097
000010 86 00 91 bd 5c 8f 24 3d cc 39 ab bd 70 9e 44 bd
       -0.07080178 0.04017578 -0.08360633 -0.04800266
000020 44 d2 03 3e f1 88 8e 3d 21 2b 08 bd 05 cf b6 bd
       0.12873179 0.06959713 -0.033244256 -0.089262046
000030 44 e9 e7 3c bb 9c e7 3d 8a 0b c8 bd ef 33 c4 3d
       0.028309472 0.11309191 -0.09767826 0.09580218
000040 88 3b 77 3d ed c1 e6 3b 40 f2 94 3d 23 1b 30 bc
       0.060359508 0.0070421607 0.07272768 -0.010748657
000050 49 93 eb 3d e3 c4 e4 bd cf d0 d6 3d 24 75 de 3d
       0.11502702 -0.11170366 0.10489046 0.108621866
000060 0e 7d 91 3d 28 78 03 3e 0a 21 ae 3d 19 81 d5 bd
       0.071039304 0.12838805 0.085023955 -0.10425014
000070 f2 d5 b9 3d d7 94 b8 bd 22 57 02 3e 1f 04 3d 3d
       0.0907401 -0.09012764 0.12728551 0.04614651
000080 f2 84 17 be 54 84 7d bd 7b 74 fa 3d e5 a8 11 3e
       -0.14796808 -0.061893776 0.12229248 0.14224584
000090 b8 7b 1b bd 80 9b 3e bd 12 8e 54 bd bf 6a 5d bd
       -0.037959784 -0.046535015 -0.0518933 -0.05405688
0000a0 15 81 d0 3d 0c 75 db bd e7 89 c4 3d e9 ed b4 3d
       0.101808704 -0.10715684 0.09596615 0.0883444
0000b0 f4 05 d7 bd a7 a0 42 bd fa 64 de 3d a5 f4 c1 bd
       -0.10499182 -0.04751649 0.108591035 -0.0947049
0000c0 23 4e 45 3b 79 aa 9f 3d c4 0c 0f 3d 6f 48 22 3d
       0.0030106388 0.07796187 0.034924284 0.03961986
0000d0 11 ed e8 3c 35 7b 45 b9 74 6b df 3d 6d 27 c9 bd
       0.028433355 -0.00018833282 0.10909167 -0.09821973
0000e0 8b 01 03 bd f2 39 9b 3d db d7 ff bd 57 2e df 3d
       -0.031983893 0.075794116 -0.12492343 0.108975105
0000f0 b2 64 a2 bd b5 27 1f 3d 60 70 d0 bd d6 79 c3 bd
       -0.07929362 0.038856227 -0.10177684 -0.09544723
000100 5a 96 69 3d d6 f1 f9 3d b9 f8 97 3d 51 f1 8c bd
       0.057028152 0.1220433 0.07420487 -0.06881965
000110 98 3f 96 bd 3e 69 9e bd 9e 76 13 3d 7e 52 de 3d
       -0.07336348 -0.07734917 0.036001794 0.10855578
000120 3d aa e1 3c 5d 55 bb bd b8 46 b8 bd d4 93 d7 3d
       0.027546996 -0.09147141 -0.089978635 0.10526243
000130 8f c4 87 bd d1 29 00 3e 1d 14 c7 bc e3 7b fb bd
       -0.066292875 0.12515952 -0.024301583 -0.12279489
000140 e0 96 3e 3d 33 7f bf bd 97 29 a0 bd ea 95 99 3d
       0.046530604 -0.09350433 -0.07820433 0.07499297
000150 5a 19 87 bd bc 4d e1 bd ff dc 89 bd fd ce 1e bc
       -0.06596632 -0.11001155 -0.06731605 -0.009692905
000160 f5 4d 2c 3e f6 c8 c5 3d 83 63 4d bd a3 86 82 3d
       0.16826613 0.09657471 -0.05014373 0.06373336
000170 5f 71 9c bd f7 9b 7f 3b a3 2c 91 bd 3a 77 b2 3c
       -0.07638811 0.0039002874 -0.07088592 0.021785367
000180 ce da a7 3d e8 00 cc 3d 62 a1 77 3d 0d b7 5a bd
       0.081960306 0.0996111 0.06045664 -0.053397227
000190 b1 56 43 bd 91 99 f9 bd 1d ad 5f bd 83 7d 11 3e
       -0.047690097 -0.121874936 -0.054608453 0.14208035
0001a0 23 fa 03 be de b3 4a 3d 1a 14 71 bd 43 22 aa bd
       -0.12888388 0.04948794 -0.05885706 -0.08307316
0001b0 79 33 c3 bd a7 c6 c5 bd b5 16 85 bd 21 04 a6 bd
       -0.09531302 -0.096570306 -0.06498472 -0.08106256
0001c0 08 88 cd 3d df 5a 84 3d 73 18 a3 3d b1 02 7e 3d
       0.100357115 0.06462645 0.07963648 0.062014285
0001d0 e4 d3 e1 3d ea 2e ae bd 97 9e 1d 3e 8d 79 34 3e
       0.11026743 -0.08505042 0.15392528 0.17624493
0001e0 b8 30 e0 bd 1e c0 83 bd b3 40 c3 3d 88 dc c5 bd
       -0.10946792 -0.06433128 0.09533825 -0.096612036
0001f0 e6 19 d9 bd a2 78 ed bd 21 ec cb 3d b3 c1 bb bd
       -0.10600643 -0.115952745 0.099571474 -0.091678046
000200 3a 85 f5 3d c4 bb 97 bd bf 26 a4 3d a5 cb eb bc
       0.119883016 -0.0740886 0.08015203 -0.028783629
000210 bf 82 ab bd 86 58 bd 3d 54 b9 d7 bd 82 e4 95 bd
       -0.08374547 0.092454 -0.105333954 -0.07318975
000220 3e 90 0a 3e 82 f9 90 3d 54 88 1c 3d 82 02 bc bd
       0.13531587 0.0707884 0.03821595 -0.09180166
000230 cc fc 14 3c 1c 9f 87 3d 27 9f e7 bd b6 7a b8 3d
       0.009093475 0.066221446 -0.11309653 0.0900778
000240 20 97 b0 3d a4 35 ad bd 51 52 ad 3d 71 e8 3b bd
       0.08622575 -0.08457497 0.08462966 -0.04587597
000250 92 7d dc 3d d4 84 ad bd 9a 60 05 3e 5a 62 e3 3d
       0.10766138 -0.084726006 0.13025132 0.111027434
000260 b1 1d 89 3d 2b 3c eb 3d 64 2f d2 3d a3 19 cd bd
       0.06695116 0.114860855 0.10262945 -0.100146554
000270 ad dc 06 3e ba 34 7f bd 49 9e c0 3d c4 3d e7 3d
       0.13170119 -0.062306143 0.094051905 0.11291078
000280 d9 5d e9 bd 65 91 c5 bd 1f c9 92 3d 50 c0 ea 3d
       -0.11394853 -0.096468724 0.07167267 0.11462462
000290 00 3d 4e bd 69 04 3f bd 6f 59 e1 bd 51 a5 f0 bd
       -0.050351143 -0.046635065 -0.11003386 -0.117502816
0002a0 86 bc ba 3d 53 9b 0a be 4e 04 cf 3d 7b 8b c9 3d
       0.09117989 -0.13535814 0.10108243 0.09841057
0002b0 45 62 a7 bd b5 6d a7 bd eb 29 df 3d 1f 71 01 be
       -0.0817304 -0.08175222 0.10896667 -0.12640809
0002c0 b1 80 8a bd 32 b3 d8 3d 18 c1 af 3d 49 45 83 3d
       -0.06762827 0.10581054 0.085817516 0.064096995
0002d0 0d b2 a3 3d 53 5c 3f 3d 99 c4 94 3d a8 50 9b bd
       0.07992945 0.046718907 0.072640605 -0.07583743
0002e0 cb d4 8c bd 9d 1f dd 3d 1a c7 12 be 25 ab fa 3d
       -0.068765245 0.107970454 -0.14333764 0.122396745
0002f0 1f 49 ab bd 48 08 03 3d 94 da 9d bd 04 ab e6 bd
       -0.08363556 0.03199032 -0.07707706 -0.112630874
000300 a5 d4 3c 3d 20 f8 a2 3d f5 e9 af 3d 2b ec 00 be
       0.04610123 0.07957482 0.08589546 -0.12590091
000310 48 f1 98 bd da ae 3c bd 9b f7 7d 3d 35 ea fc 3d
       -0.07467896 -0.04606519 0.062003713 0.12349359
000320 da ba 0a bd fb d5 ba bd 6c 75 3f bd 05 9b da 3d
       -0.0338696 -0.09122845 -0.04674284 0.10674099
000330 2e b3 76 bd 73 ef a9 3d 20 e5 6e bd 9d d2 9d bd
       -0.060229473 0.082976244 -0.05832398 -0.07706187
000340 ef ab c6 bc 4f 96 d6 bd 0b fd bc bd 11 a7 8b 3d
       -0.024251906 -0.10477888 -0.092279516 0.06818975
000350 b6 26 a0 bd f8 2e 05 be ae 00 01 3d 7c 06 fd 3d
       -0.078198835 -0.13006198 0.03149479 0.123547524
000360 fd 3c 97 3d 99 0e c7 3d 65 56 7d bd d6 dd f9 3c
       0.073846795 0.09719581 -0.06184997 0.030501287
000370 4f 5f a9 bd 13 b7 20 3d 83 c6 55 bd 35 28 83 3d
       -0.08270132 0.039237093 -0.05219127 0.06404153
000380 98 4d 6a 3d 20 51 73 3d 84 75 e1 3d f3 3e a0 bd
       0.057202905 0.05940354 0.110087425 -0.078245066
000390 be b0 37 bd 8a 8a e6 bd 6d c4 91 bd a9 98 00 3e
       -0.04484629 -0.11256893 -0.07117543 0.12558235
0003a0 db 8c e5 bd fa 86 5b 3d c8 f1 9a bd 08 ca 02 be
       -0.11208507 0.05359552 -0.07565647 -0.12772381
0003b0 b9 fa 89 bd e6 85 c9 bd f3 65 c4 bd 61 e5 a1 bd
       -0.06737275 -0.09839992 -0.09589758 -0.07905079
0003c0 bc 75 ca 3d 29 ad b1 3d fc 4c c0 3d 27 75 6c 3d
       0.09885737 0.08675606 0.093896836 0.057728913
0003d0 10 e5 ac 3d 07 15 29 bd da 67 c3 3d f1 f0 c4 3d
       0.08442128 -0.04127982 0.095412925 0.096162684
0003e0 27 cc e8 bd 67 84 9e bd db 05 80 3d 59 42 eb bd
       -0.11367064 -0.077400975 0.06251117 -0.11487264
0003f0 db 04 83 bd 21 c4 d3 bd 47 6c a5 3d 50 4c 62 bd
       -0.063974105 -0.10340143 0.08077293 -0.05524856

relation_embeddings.weight f4 [4, 128]
000000 53 89 71 3d b4 ca 2d be 65 e4 24 3e 54 e1 3b be
       0.058968853 -0.16971856 0.1610275 -0.18347675
000010 d6 c9 36 be 6d cf eb 3a 9d 2a dd 3d 83 f8 38 be
       -0.17850432 0.0017990895 0.107991435 -0.1806355
000020 d9 ef 2d be c8 6d c7 bd 21 5a 11 be 5a 0d 04 3e
       -0.16986026 -0.09737736 -0.14194538 0.12895718
000030 55 30 3b be 5c 7c a7 3c a4 74 41 3e c4 03 f6 3d
       -0.18280156 0.020445041 0.18892151 0.12012437
000040 99 30 19 be 01 bc aa bd 11 6e 05 be f5 da bb 3d
       -0.14959945 -0.0833664 -0.13030268 0.09172622
000050 24 c5 18 be 25 7c 2f 3e 2d 71 ef 3d d7 b5 19 3e
       -0.14918953 0.17137201 0.116915084 0.15010773
000060 34 78 c1 bd 4c 5b 15 bd bb 5d 0d 3e 8b 35 1d be
       -0.09446755 -0.03646402 0.13805287 -0.15352456
000070 02 1f d6 3d a3 c2 3b 3e 14 13 95 bd b8 d1 04 3e
       0.10455133 0.18335967 -0.072790295 0.12970626
000080 b2 1d 23 be af ad 02 be 85 a3 c9 bd 4d 0c c8 3d
       -0.15929297 -0.12761568 -0.09845642 0.09767971
000090 6d 2e f4 3d 6e 70 57 3d 99 67 15 3e 1e 7d fd bd
       0.119229175 0.052597456 0.145903 -0.1237738
0000a0 1d 02 15 be 1b fe 17 be a1 19 3b be 22 c3 ba bd
       -0.14551587 -0.14843027 -0.18271495 -0.0911925
0000b0 51 1d 32 be 12 82 20 3e 22 75 16 3e 83 93 37 3e
       -0.17393996 0.15674618 0.1469312 0.17927365
0000c0 b6 22 0c 3e 09 76 a1 3d f9 75 16 bd 8e 07 1d bd
       0.13685116 0.078838415 -0.0367336 -0.038337283
0000d0 e1 4d 29 be 46 86 b0 3d 56 bd 1b 3e 69 f4 06 be
       -0.16533615 0.086193606 0.15208945 -0.13179173
0000e0 05 b8 31 be cd ec 19 3e 68 0f b9 bd 67 be ee 3d
       -0.17355354 0.15031739 -0.09036142 0.1165741
0000f0 d4 9c 24 3e 4d e3 31 3e c5 2a f9 3d 2d e3 0b be
       0.1607545 0.17371865 0.12166361 -0.1366088
000100 44 5a 72 3d c5 62 1e 3e 39 a6 2f be b5 53 84 3d
       0.059168115 0.15467365 -0.17153253 0.06461278
000110 41 db ef 3d 38 87 13 3e f6 00 20 3d cd 28 03 be
       0.11711741 0.1440705 0.039063416 -0.12808533
000120 51 e4 27 be 85 76 1d 3e 0e 55 19 be 24 19 3b be
       -0.1639569 0.15377243 -0.14973852 -0.18271309
000130 fb 02 3b be 37 ab 23 be ec 91 2e 3e 3c b1 11 3e
       -0.18262856 -0.15983282 0.17047852 0.14227766
000140 4d 91 fe 3d 01 cc 18 3e ea 1d 43 3e 65 02 06 be
       0.12430058 0.14921571 0.1905438 -0.13086851
000150 b5 ea 1c 3e c8 a7 f0 3d ec 59 bb 3d 75 97 02 3d
       0.15323909 0.11750752 0.091480106 0.031882722
000160 fd b6 05 3e 9c 10 18 3e fd 1e d8 3d ad 90 2b be
       0.13058086 0.14850086 0.105527855 -0.16754408
000170 a8 2c 0c be 92 0a 17 3e 57 e2 2d 3e e9 58 44 be
       -0.1368891 0.14750126 0.16980873 -0.19174542
000180 25 df 3e be b3 49 29 3e 78 38 f0 3d 89 0b 3a 3e
       -0.1863981 0.1653202 0.117295206 0.18168463
000190 e5 77 38 be 86 14 c5 bd 85 43 06 3e 20 f2 45 bd
       -0.18014486 -0.09623055 0.13111694 -0.04832661
0001a0 14 2c 0f be 47 30 19 be 34 04 de 3c 44 e4 2a 3e
       -0.13981658 -0.14959823 0.027101614 0.16688639
0001b0 ee 65 1d be b4 ab 15 3e 05 7c 3d be 27 12 e7 bd
       -0.15370914 0.14616281 -0.18504341 -0.11282759
0001c0 f0 1b 39 be 6c 1f 20 be 73 f7 2c be ca 17 07 be
       -0.18077064 -0.15636986 -0.1689127 -0.13192669
0001d0 79 03 0a 3e 85 4f 1a be 91 65 bc bd 5e 59 a0 bb
       0.13477887 -0.15069397 -0.0919906 -0.004893466
0001e0 23 54 09 be 13 22 8d bd 25 ea 18 3e 91 22 b9 3d
       -0.13411002 -0.06891265 0.14933069 0.09039796
0001f0 9c 27 0c 3e fc 19 aa bd ca 05 87 3c 54 8d 7a 3d
       0.13686985 -0.083057374 0.016482253 0.061169937
000200 9d ea 09 be 15 03 3d be 3b 04 41 3e 0e 31 89 bd
       -0.13468404 -0.18458207 0.1884927 -0.066988096
000210 c2 d7 44 be fd 68 26 3e b0 be e2 bd 39 21 56 be
       -0.1922293 0.16250987 -0.11071527 -0.20911111
000220 74 6e 33 be 7b 9e 5c be 74 7d 12 bd 60 c0 eb 3d
       -0.17522603 -0.2154483 -0.035764173 0.11511302
000230 eb 23 9e bd c7 87 ea 3d 28 83 52 3e da 34 0e bd
       -0.077216946 0.11451679 0.20557845 -0.034718372
000240 25 3b 60 3d 27 19 3f be ee aa 99 3d 9d f8 e7 bd
       0.054743905 -0.18661939 0.075033054 -0.11326716
000250 2a 32 65 be 77 c2 35 3e c0 fd 21 bd 3d 7b 02 3c
       -0.22382417 0.17749964 -0.039548635 0.007963953
000260 93 b6 ed 3d cd 6d f9 ba 93 32 7a bd 6a 06 60 3d
       0.11607089 -0.0019029916 -0.061083388 0.054693617
000270 f8 b6 00 3e 03 c3 34 3e b5 8e 39 be 3e 4d 56 bd
       0.12569797 0.17652516 -0.18120845 -0.052319758
000280 94 47 de bd 67 45 e3 3c 93 9f 25 be 84 c2 b8 bd
       -0.10853496 0.027743055 -0.16174154 -0.09021476
000290 29 70 b7 bd 08 fa cf bd dd 25 47 bc da 37 c0 bd
       -0.0895694 -0.101551116 -0.012155023 -0.09385653
0002a0 8c 2e 65 3c 4d 21 2d bb 86 8d 47 be 74 5d a0 39
       0.013988148 -0.0026417554 -0.1948758 0.00030587206
0002b0 22 bc c6 bd 0d 5f 10 bd ae 35 92 bd 4a 58 b0 3d
       -0.09703852 -0.035246897 -0.07139145 0.0861059
0002c0 9a ca ab bd 17 e8 4b 3e c2 5e 2b 3d 0e f8 23 3e
       -0.083882526 0.19912754 0.041838415 0.16012594
0002d0 5b d9 fb bd e7 9b 49 3e bd b5 52 3e ef e9 ce 3d
       -0.12297317 0.19688378 0.2057714 0.10103213
0002e0 41 39 53 be e6 de 42 3e c3 53 d5 3d b6 2f 46 3e
       -0.2062731 0.19030342 0.10416367 0.19354138
0002f0 f9 4d 57 bd c2 f7 4c 3e ba 65 c7 bd 5f 54 35 be
       -0.052564595 0.20016387 -0.097362 -0.17707966
000300 58 cf 17 be 26 13 11 bd 74 5f 41 be 91 5c d2 3c
       -0.14825189 -0.035418652 -0.18884069 0.025678905
000310 5e 54 52 3e fb 16 59 3e 81 70 24 3e 9a 1f 82 3b
       0.20539996 0.21200173 0.16058542 0.0039710524
000320 7b 6d 5e be 3c b1 60 3e eb e3 02 3d f9 ce 19 be
       -0.21721451 0.2194261 0.03195564 -0.1502036
000330 78 ca 93 bd f4 c4 c8 bd 44 1d bd bc fb 47 9f 3d
       -0.07216352 -0.09803191 -0.023085244 0.07777401
000340 91 b3 44 3e af b8 60 3e 5a 94 0b 3e 9e 8c 95 3d
       0.19209124 0.21945451 0.1363081 0.07302211
000350 8e 48 96 ba c6 90 3e 3e 2f c4 10 bd 35 15 d9 bd
       -0.0011465715 0.18609914 -0.035343345 -0.10599748
000360 71 c6 c5 3c 2a 47 fd 3d ad d7 c7 bd d3 c9 50 be
       0.024142476 0.12367089 -0.09757934 -0.2038949
000370 73 08 98 bb 03 9a 01 3e 92 5e 83 3c 69 e1 1d be
       -0.004639679 0.12656407 0.016036306 -0.15418018
000380 60 30 87 bc 49 6f 5b 3e 2a 9c 25 bd 2c 24 57 3e
       -0.01650256 0.2142917 -0.040432133 0.21009892
000390 aa 0f 92 bd 72 d7 94 bd 2a a7 c3 bd 90 a9 66 bd
       -0.07131894 -0.072676554 -0.095533684 -0.05631405
0003a0 04 a3 56 3d 90 1d 5a be 67 c3 c0 bd 1b a9 3c 3e
       0.052401558 -0.2130034 -0.0941227 0.18423884
0003b0 fb aa e7 bb e6 db 96 bc 15 f3 02 be e1 e9 9a 3d
       -0.007069943 -0.018415403 -0.12788041 0.0756414
0003c0 0c bd b6 bd ef 9b 4f 3d e9 0b ac bc fa 4d af 3d
       -0.089227766 0.05068582 -0.021001773 0.08559795
0003d0 eb 30 32 3e 91 90 25 3c b8 52 14 be 4c 16 05 be
       0.17401473 0.010105268 -0.1448468 -0.12996787
0003e0 c7 c7 d0 bd af a3 be bd f7 a8 47 3e 40 cd 44 3e
       -0.101943545 -0.09308564 0.19498049 0.19218922
0003f0 a5 2a 77 bd 54 e0 02 3e 3c e2 0f be 37 53 8a bd
       -0.060343403 0.12780887 -0.14051145 -0.06754153
